Week17/Robust/data/mnist_lenet.pt (torch_old, 88748 bytes, 8 tensors)

conv1.weight f4 [10, 1, 5, 5]
0	0x3e2b1f1f	0.1671109
1	0x3e00d5c9	0.12581553
2	0xbe4f31d7	-0.20233856
3	0x3d603daa	0.054746307
4	0xbde07c5c	-0.1096122
5	0x3ddae0f0	0.10687435
6	0xbe0e7639	-0.13912286
7	0xbe05a962	-0.13052896
8	0xbd9bfebe	-0.076169476
9	0xbde33481	-0.11093999
10	0x3e5b27bb	0.21401875
11	0xbd9c5a84	-0.07634452
12	0x3e17c803	0.14822392
13	0xbe707970	-0.23483825
14	0xbdc3732d	-0.095434524
15	0x3e0b54ad	0.1360652
16	0x3e1e8a54	0.15482455
17	0x3e0b5502	0.13606647
18	0xbd690a7f	-0.056894775
19	0xbe0a58cb	-0.13510434
20	0x3cbf6b27	0.023366524
21	0x3d6c9c65	0.057766337
22	0xbe0964df	-0.13417386
23	0xbe020ecc	-0.12700957
24	0xbe2b9452	-0.16755798
25	0xbe8d93c0	-0.27651787
26	0xbe965740	-0.2936344
27	0xbe260516	-0.16212878
28	0x3d813f3a	0.06310888
29	0xbdc407b5	-0.095717825
30	0xbe7497b2	-0.23885992
31	0x3e067bb1	0.13133122
32	0x3dd516f9	0.10404772
33	0x3e60d1f1	0.21955086
34	0x3e2c1dc6	0.16808233
35	0x3e473bb6	0.19456372
36	0x3e4fba36	0.20285878
37	0x3e92ca2f	0.2866988
38	0x3e8a5595	0.2701842
39	0x3e361caa	0.17784372
40	0x3e9fdb2d	0.31221905
41	0x3d93b3c7	0.07212024
42	0x3dbe3dad	0.092891075
43	0x3d4f1d34	0.05056496
44	0xbe0d66a9	-0.13808693
45	0xbd12db9b	-0.035853963
46	0x3c017ae5	0.0079028355
47	0xbd8398b0	-0.06425607
48	0xbdd0937c	-0.101843804
49	0xbeab0ed7	-0.3340976
50	0xbe061643	-0.1309443
51	0xbe039bdb	-0.12852423
52	0xbe86d3c6	-0.26333445
53	0xbec71934	-0.38886416
54	0xbeb9338b	-0.36172137
55	0xbdf5de7a	-0.12005325
56	0xbe465923	-0.1936994
57	0xbe89aeff	-0.26891324
58	0xbdc3d5e0	-0.09562278
59	0xbe807c7c	-0.25094974
60	0xbd4fd161	-0.05073679
61	0xbdcfe20d	-0.10150538
62	0xbdc9ff29	-0.09863121
63	0x3e0d2334	0.1378296
64	0x3e9ca9c0	0.3059826
65	0x3e8dd8f2	0.2770458
66	0x3cfb49ff	0.030674933
67	0x3ec0db50	0.37667322
68	0x3ec37051	0.38171628
69	0x3eaa5d51	0.3327432
70	0x3eb2ba51	0.34907773
71	0x3d3d904c	0.04628019
72	0x3e8f7e02	0.28025824
73	0xbcdc9d06	-0.026930343
74	0x3cefe028	0.02928169
75	0x3d98b489	0.07456309
76	0xbe0facc1	-0.14030744
77	0x3d9e17e0	0.077193975
78	0x3e7646f1	0.240505
79	0x3ed0dae6	0.40792006
80	0xbd8f9bd3	-0.07012143
81	0x3d94f7c2	0.072738186
82	0xbdcfb291	-0.10141481
83	0x3ea61075	0.3243443
84	0x3ef6dd2a	0.4821561
85	0xbe7a377f	-0.24435233
86	0xbe8f21ca	-0.27955467
87	0xbe1c229c	-0.15247577
88	0x3db9e3a0	0.09076619
89	0x3e96d90a	0.29462463
90	0xbe88dc04	-0.2673036
91	0x3b4d4642	0.0031322394
92	0xbe7c2251	-0.24622466
93	0x3e03f0ac	0.12884778
94	0x3e5a0fab	0.2129504
95	0xbeabd4d7	-0.3356082
96	0xbe9c22f9	-0.30495432
97	0xbd912457	-0.070870094
98	0xbe132990	-0.14371324
99	0x3e8a687a	0.27032834
100	0x3dbe5591	0.09293664
101	0x3e0a4fa1	0.13506939
102	0x3e338fe2	0.17535356
103	0xbe5e6066	-0.2171646
104	0xbe7a233f	-0.24427508
105	0x3e113504	0.1418038
106	0x3e82814c	0.2548927
107	0xbe3b85f6	-0.18312821
108	0xbd77e51a	-0.060521223
109	0xbe3b219e	-0.18274543
110	0x3e83e185	0.25757995
111	0xbc56aa9b	-0.013102199
112	0xbb969364	-0.004595207
113	0xbe221dde	-0.15831706
114	0xbe82d629	-0.25554016
115	0x3e4a464a	0.19753376
116	0x3df5b7f3	0.11997976
117	0xbdf1f72b	-0.11814722
118	0xbe753295	-0.23945077
119	0xbca8dbd5	-0.020612637
120	0x3e0a7306	0.1352044
121	0xb8638a1a	-5.4249635e-05
122	0xbd96e468	-0.07367784
123	0xbd282f36	-0.04106065
124	0xbcae4f15	-0.021277944
125	0xbda239e3	-0.07921197
126	0xbe92d6d3	-0.28679523
127	0xbe721d87	-0.23644076
128	0xbbaceaed	-0.005277029
129	0x3ea5c07d	0.3237342
130	0xbe8f835e	-0.28029913
131	0xbd034611	-0.032049242
132	0xbe2b8d46	-0.1675311
133	0x3e17238d	0.14759655
134	0x3eaf2ef1	0.342155
135	0xbe228149	-0.15869631
136	0xbe93697a	-0.2879141
137	0x3e3f1cce	0.18663332
138	0x3daf1b67	0.085501485
139	0x3e4977ac	0.19674557
140	0xbe1b6e0b	-0.15178697
141	0xbd6da8ce	-0.058022313
142	0x3ceb2904	0.028706081
143	0x3c2bb8f2	0.010481106
144	0x3ea39f7f	0.31957623
145	0xbe52351c	-0.20528072
146	0x3d00d419	0.031452272
147	0x3e147c35	0.14500506
148	0x3e9bbbd5	0.30416742
149	0x3db4ab7d	0.08821771
150	0xbe440165	-0.19141157
151	0xbe8eae1a	-0.27867204
152	0xbe5846e0	-0.21120787
153	0x3c6e24b8	0.014535122
154	0xbe726e49	-0.23674883
155	0x3df693d2	0.12039913
156	0xbe0a2ef8	-0.1349448
157	0xbdcbc8b3	-0.0995039
158	0xbe56abb0	-0.20963931
159	0xbc1f9bc0	-0.009741724
160	0xbe1c149c	-0.15242237
161	0x3e132dc3	0.14372925
162	0xbd173ee6	-0.03692522
163	0x3e2de568	0.16982043
164	0x3d2d6b3a	0.042338587
165	0x3d181da6	0.03713765
166	0xbe0b1cc5	-0.13585193
167	0xbcb4790a	-0.022030372
168	0x3dc802ff	0.097661965
169	0x3bb21813	0.005434999
170	0x3d292603	0.041296016
171	0x3c4b55a6	0.012410557
172	0x3e55ff40	0.20898151
173	0x3e1a53cb	0.15071027
174	0x3ddd5261	0.10806728
175	0x3eb09ae7	0.3449318
176	0x3c3ad91f	0.011404305
177	0xbdda4c8d	-0.10659132
178	0xbee571c0	-0.44813347
179	0xbf02cc00	-0.5109253
180	0x3ed4c107	0.41553518
181	0x3eed773c	0.4638003
182	0x3ca8a421	0.020586075
183	0xbeb5c80e	-0.35504192
184	0xbdda0996	-0.106463596
185	0x3e652605	0.22377785
186	0x3f0047ad	0.5010937
187	0x3eb90586	0.36137027
188	0x3ea75e3e	0.3268909
189	0x3e0c6337	0.13709722
190	0xbbe69c55	-0.007037679
191	0x3e20e725	0.15713175
192	0x3e7d7697	0.2475227
193	0x3e5fef3b	0.21868603
194	0xbdaa3c08	-0.08312231
195	0xbdba03f4	-0.09082785
196	0xbe3be0a6	-0.18347415
197	0xbd82218e	-0.06354056
198	0xbcef4316	-0.029206794
199	0xbd6a833d	-0.057254065
200	0xbd08b73f	-0.033377882
201	0x3dae11dd	0.08499501
202	0x3c98f09e	0.018669423
203	0x3e033e73	0.12816791
204	0xbd881aee	-0.066457614
205	0xbd6dabe8	-0.05802527
206	0xbca55bae	-0.020185318
207	0x3d082549	0.033238683
208	0x3def99ff	0.11699294
209	0xbe288051	-0.16455199
210	0xbdc47681	-0.09592915
211	0x3d9937b0	0.07481325
212	0x3e50819f	0.20361947
213	0xbdfd8ae8	-0.1238001
214	0xbd09aa3d	-0.033609618
215	0x3d834623	0.06409862
216	0x3db16cda	0.0866334
217	0xbba04cbc	-0.00489196
218	0x3d8c5c12	0.068534985
219	0xbe774bff	-0.24150084
220	0x3d792782	0.060828693
221	0xbc01f773	-0.007932532
222	0x3daf8e66	0.08572082
223	0xbe2e74dc	-0.17036766
224	0x3da17eb3	0.07885494
225	0xbe563b1c	-0.20920986
226	0xbc882546	-0.016619336
227	0xbd3bdcae	-0.045864753
228	0xbe77a244	-0.24182993
229	0xbda8e077	-0.08245938
230	0x3ccd4e45	0.025061736
231	0x3d77dc43	0.060512792
232	0xbe471789	-0.19442572
233	0x3e377359	0.17915095
234	0x3e5c9286	0.2154027
235	0xbd9f46d0	-0.07777178
236	0x3e5c9541	0.21541311
237	0x3d806207	0.06268697
238	0x3dfd9df7	0.12383645
239	0xbc7fb94d	-0.015608144
240	0x3e963f7d	0.29345313
241	0x3e423fe6	0.18969688
242	0xbdbc5e68	-0.09197694
243	0x3e86472c	0.26226175
244	0x3e3bceb7	0.18340574
245	0x3df29d0e	0.11846362
246	0xbe74454c	-0.2385456
247	0xbe7463ba	-0.23866168
248	0xbd9a8b72	-0.07546128
249	0x3e11f112	0.14252117

conv1.bias f4 [10]
0	0xbc8bba13	-0.0170565
1	0xbe44f9ab	-0.19235866
2	0x3b9e1996	0.0048248274
3	0xbe966465	-0.2937347
4	0xbdb8cf65	-0.09023932
5	0xbec3b16c	-0.382213
6	0x3e4321db	0.19055884
7	0xbe8a3adc	-0.2699803
8	0xbe0021a1	-0.12512828
9	0xbdbbb20a	-0.09164818

conv2.weight f4 [20, 10, 5, 5]
0	0x3d7f6b75	0.06235834
1	0x3cf636f3	0.030055499
2	0xbd82d8eb	-0.0638903
3	0x3d63b10d	0.05558877
4	0xbd51cac0	-0.051218748
5	0xb9dd26e0	-0.0004218137
6	0xbd790d8e	-0.060803942
7	0xbc684ab1	-0.014177964
8	0xbdb052ec	-0.08609566
9	0xbca17d22	-0.019712988
10	0x3c746930	0.014917657
11	0x3c509f30	0.012733266
12	0xbd3f263f	-0.046667334
13	0xbd7218b1	-0.05910558
14	0x3c972b7e	0.018453356
15	0xbcaa8ceb	-0.020819148
16	0xbc854945	-0.01627029
17	0xbd356438	-0.04428503
18	0xbc3bf334	-0.011471558
19	0xbd925499	-0.07145042
20	0x3cc94c33	0.024572467
21	0x3d174bc8	0.036937505
22	0xbd4d6a99	-0.050150488
23	0x3c27fdd6	0.01025339
24	0xbc85e906	-0.016346466
25	0xbd09ef77	-0.033675637
26	0xbc0ffe3f	-0.008788644
27	0xbd2f3786	-0.04277756
28	0xbca3aef4	-0.019980885
29	0x3a142b8d	0.00056522415
30	0x3d73bdbe	0.059507124
31	0xbdb1a7f5	-0.086746134
32	0xbdd08f7d	-0.10183618
33	0xbe3f1a33	-0.18662338
34	0xbe8f1e02	-0.27952582
35	0x3d85df94	0.06536785
36	0x3cf1d765	0.029521653
37	0x3c43415e	0.01191744
38	0x3cf7fb54	0.03027121
39	0x3d27448a	0.04083685
40	0x3b7dc933	0.003872466
41	0x3d4e1a17	0.05031785
42	0xbd052507	-0.032506015
43	0x3ddfab06	0.10921292
44	0x3e1ecd47	0.15507995
45	0xbb657f04	-0.0035018334
46	0x3d6c38d2	0.057671376
47	0x3d88eb35	0.06685487
48	0xbd23eacc	-0.04001884
49	0xbbe43aa3	-0.006964998
50	0x3ca1ca33	0.019749736
51	0xbdad90dc	-0.08474895
52	0xbe0cdce8	-0.13756144
53	0xbc85ca0a	-0.016331691
54	0xbd3b4820	-0.04572308
55	0x3d28fbeb	0.041255873
56	0x3dbffe25	0.09374646
57	0xbb32ecf0	-0.002730187
58	0xbc828d31	-0.015936466
59	0xbd668fc7	-0.05628946
60	0x3d362cf2	0.044476457
61	0x3dbf5777	0.093428545
62	0x3df90a97	0.12160223
63	0x3dc10d20	0.094263315
64	0x3e70a16f	0.23499082
65	0x3af62528	0.0018779384
66	0xbd07a520	-0.03311646
67	0x3da9670e	0.08271609
68	0x3c62cd52	0.0138428975
69	0x3de43c38	0.11144298
70	0x3d9c33f8	0.076271
71	0x3d46a10b	0.048493426
72	0xbdef0652	-0.116711274
73	0xbda35e60	-0.07976985
74	0xb9dc67f7	-0.0004203913
75	0xbdfe7453	-0.12424531
76	0xbd5cd2a8	-0.053911835
77	0x3de72ba0	0.11287618
78	0x3e15bd39	0.14622964
79	0x3debbc8e	0.11510573
80	0xbe4e867d	-0.2016849
81	0xbe5d0a74	-0.21586019
82	0xbd00e4ea	-0.03146831
83	0x3c281a80	0.010260224
84	0xbcd6f5d1	-0.026240261
85	0xbe174459	-0.14772166
86	0xbbebac80	-0.0071921945
87	0xbd8b636c	-0.068060726
88	0xbdf034e9	-0.11728842
89	0xbd676813	-0.056495737
90	0xbcdd87b7	-0.027042253
91	0x3c0c2002	0.008552553
92	0xbd4ae419	-0.049533937
93	0x3d87e2d4	0.06635061
94	0x3bf1edc2	0.0073830793
95	0xbd70f422	-0.058826573
96	0xbd888e8f	-0.06667816
97	0x3d3169ad	0.04331367
98	0x3db784d2	0.0896088
99	0xbc4e9341	-0.01260835
100	0xbb8c178d	-0.0042752684
101	0x3d0669b3	0.032815646
102	0x3d506e8d	0.05088668
103	0xbd58be9c	-0.052916154
104	0x3cc4bb52	0.024015103
105	0x3cebf74d	0.028804446
106	0x3cd4f190	0.025994092
107	0xbd25dd62	-0.04049433
108	0xbd264981	-0.040597443
109	0x3b802da9	0.003911693
110	0xbd37974f	-0.044822033
111	0xbdaae112	-0.0834371
112	0xbd524f92	-0.051345415
113	0xbd72a0e6	-0.059235476
114	0xbde701df	-0.11279654
115	0x3d8da8aa	0.06916936
116	0xbc427a58	-0.011869989
117	0xbd6264fc	-0.055272087
118	0xbd19b02c	-0.037521526
119	0xbcadc6bb	-0.021212926
120	0x3d4286c7	0.047491815
121	0xb763b3aa	-1.3572086e-05
122	0x3c4210df	0.011844843
123	0x3c90f95f	0.017697034
124	0xbb050a77	-0.0020300427
125	0xb92ef53e	-0.00016685293
126	0xbc23a0d6	-0.009987077
127	0xbbe01b4b	-0.006839191
128	0x3d3080be	0.043091528
129	0xbd9b524f	-0.075840585
130	0xbdec12f2	-0.11527051
131	0xbdaf9286	-0.08572869
132	0xbdbf7d00	-0.09350014
133	0xbd10ce49	-0.03535298
134	0xbe010082	-0.1259785
135	0xbdd4e5e0	-0.10395408
136	0xbdb8e9a6	-0.0902894
137	0xbd2cd027	-0.042190697
138	0xbd2d5ed5	-0.042326767
139	0xbd2d2f99	-0.04228172
140	0x3c2704c7	0.01019401
141	0x3d05934a	0.03261117
142	0xbcb9e98a	-0.022694368
143	0xbd6c5e89	-0.057707343
144	0xbd16cc59	-0.036815975
145	0xbce3082c	-0.027713858
146	0x3d0e3101	0.034714703
147	0xbd27ec01	-0.040996555
148	0xbdb2238f	-0.086981885
149	0xbdfb1649	-0.1226011
150	0x3cc32ddb	0.023825577
151	0xbd8250d5	-0.06363074
152	0xbd29c0be	-0.04144358
153	0xbcf86577	-0.03032182
154	0xbd53f71a	-0.051749326
155	0xbbdf407f	-0.0068131085
156	0xbcd1bd20	-0.025602877
157	0x3d2a9318	0.041644186
158	0xbdab02f5	-0.083501734
159	0xbd9f9b8e	-0.077933416
160	0xbd8f9f78	-0.07012838
161	0xbcbe4688	-0.023226991
162	0x3db8d2fa	0.090246156
163	0x3d15755d	0.03648888
164	0x3d37d8ab	0.044884365
165	0xbc3e9529	-0.011632242
166	0xbc7f3bd0	-0.015578225
167	0xbd1fcc23	-0.03901304
168	0x3ce00e9d	0.027350718
169	0x3d227f50	0.039672196
170	0xbbab4b04	-0.0052274484
171	0x3c806860	0.01567477
172	0xbdaea0a4	-0.085267335
173	0xbd561698	-0.05226764
174	0xbdc33b15	-0.095327534
175	0xbbac39de	-0.0052559217
176	0xbda6786d	-0.08128438
177	0xbdf192ed	-0.11795602
178	0xbcaf2d7c	-0.021383993
179	0x3dd34911	0.10316671
180	0x3db718e7	0.089402966
181	0xbdab4eeb	-0.08364662
182	0xbe5fa35e	-0.21839663
183	0xbe9bee1f	-0.3045511
184	0xbe546450	-0.20741391
185	0x3de6eed8	0.112760246
186	0x3d47c64d	0.0487731
187	0x3ddd6c80	0.1081171
188	0x3d1e8114	0.038697317
189	0x3dda44a7	0.10657626
190	0xbe023a0f	-0.1271746
191	0xbd112f46	-0.035445474
192	0x3de83a08	0.113391936
193	0x3d9b93d7	0.075965576
194	0x3dd8ba28	0.105823815
195	0xbce6b99b	-0.028164675
196	0xbc878aa9	-0.01654561
197	0xbd8cda73	-0.068776034
198	0x3cfb3bb5	0.030668119
199	0x3d1f9387	0.038959052
200	0xbcb9f50b	-0.022699853
201	0xbd6d533d	-0.05794071
202	0xbc16f968	-0.0092147365
203	0x3bc9102e	0.006135962
204	0xbc0c0662	-0.008546444
205	0x3d3c9404	0.046039596
206	0xbd5dc6eb	-0.05414478
207	0xbce374c1	-0.027765634
208	0xbd7b000d	-0.061279345
209	0x3c62c259	0.013840281
210	0xbcca7103	-0.024712091
211	0x3c991488	0.018686548
212	0x3c24b818	0.010053657
213	0xbd026777	-0.031836953
214	0xbda1eff5	-0.07907096
215	0x3cbf3798	0.023341939
216	0x3d86235b	0.06549712
217	0x3cf2383a	0.029567827
218	0xbd8c7e82	-0.06860067
219	0x3b8b02c2	0.004242272
220	0x3bb137b0	0.00540825
221	0x3c266f0c	0.010158312
222	0x3d73e55e	0.059544913
223	0xbd397eec	-0.045287058
224	0x3c6ea369	0.014565327
225	0xbd1f4aac	-0.038889572
226	0xbdad0d24	-0.08449772
227	0xbc7f47ad	-0.015581054
228	0xbd4d3b27	-0.05010524
229	0x3c30fce6	0.010802483
230	0xbc65c5e7	-0.014024234
231	0xbd2fc983	-0.042916786
232	0xbd355b23	-0.044276368
233	0xbd8af17e	-0.06784342
234	0xbdfbf519	-0.12302608
235	0x3d56d9e9	0.05245391
236	0x3dac62c6	0.08417277
237	0xbca32e3f	-0.019919513
238	0x3d91ef39	0.07125706
239	0x3d8a8be2	0.06764962
240	0x3c569f41	0.0130994925
241	0xbd91a909	-0.07112319
242	0x3d062900	0.032753944
243	0x3de9851e	0.11402343
244	0x3dc096a6	0.09403734
245	0xbd4268bb	-0.04746316
246	0x3da33b14	0.07970253
247	0x3d8948de	0.067033514
248	0xbd0333f7	-0.03203198
249	0xbd439408	-0.047748595
250	0xbd5a1c3e	-0.05324959
251	0xbd165818	-0.036705106
252	0xbcba2a41	-0.022725226
253	0xbd3c69f5	-0.045999486
254	0xbd78cb37	-0.060740676
255	0x3cebaf22	0.028770033

conv2.bias f4 [20]
0	0xbd9676f3	-0.073469065
1	0xbd5d4933	-0.054024886
2	0xbd5b013d	-0.053467978
3	0xbaf5fabd	-0.0018766742
4	0xbd7fa63b	-0.06241439
5	0xbd517fc0	-0.051147223
6	0xbd7eb4c4	-0.06218411
7	0x3d9dc98f	0.0770446
8	0xbc586fd0	-0.013210252
9	0xbcf475e6	-0.029841375
10	0xbd4f8056	-0.0506595
11	0x3d84e7e3	0.064895414
12	0xbc2eb879	-0.010664099
13	0x3d55503a	0.052078463
14	0xbd96fe07	-0.073726706
15	0xbe411085	-0.18853958
16	0x3cc7ec92	0.024404798
17	0xbdac2097	-0.084046535
18	0xbc9d651c	-0.019213252
19	0xbd7c3231	-0.061571304

fc1.weight f4 [50, 320]
0	0xba003570	-0.00048907753
1	0xbc36eb9a	-0.01116457
2	0x3da62788	0.08113009
3	0xbd7a2126	-0.06106677
4	0xbcdb450e	-0.026766326
5	0xbd79c34d	-0.06097727
6	0x3b36bf9d	0.0027885207
7	0xbc0fc54f	-0.008775069
8	0xbc51469f	-0.012773185
9	0xbb7632af	-0.003756683
10	0xbd3201bc	-0.043458685
11	0xbc1976ab	-0.009366672
12	0x3dc7bc1d	0.09752677
13	0xbd705c7d	-0.058681954
14	0x3d327ebc	0.043577895
15	0xbc4bddcb	-0.012443016
16	0xbd1f38ac	-0.038872406
17	0xbd53dd9b	-0.05172501
18	0xbd9b15ad	-0.07572494
19	0xbdb0992a	-0.08622964
20	0x3d90aeec	0.07064614
21	0x3c1c90d8	0.009556018
22	0x3da6401e	0.08117698
23	0x3cc92581	0.024554016
24	0x3d2c9449	0.042133603
25	0x3d80a273	0.06280985
26	0x3c30dfd2	0.01079555
27	0x3d18b82f	0.037285026
28	0xbc217f10	-0.009856954
29	0xbca4b7ec	-0.020107232
30	0x3866af36	5.499945e-05
31	0xbdaa35fc	-0.08311078
32	0x3d82ca8a	0.063862875
33	0xbd1e7cb1	-0.038693134
34	0x3cf06730	0.029346079
35	0x3ccb6c49	0.024831908
36	0x3d0b8125	0.03405871
37	0xbd8f5aac	-0.06999716
38	0xbafcdb4d	-0.0019291431
39	0xbd8ea0ab	-0.06964239
40	0xbd1f0dcd	-0.03883152
41	0xbd923446	-0.071388766
42	0x3cdcb2b1	0.026940675
43	0x3d2db40b	0.04240803
44	0xbb37a3ff	-0.0028021333
45	0x3be2860d	0.0069129528
46	0x3d5b8afe	0.05359935
47	0x3d09593b	0.033532362
48	0x3d092628	0.033483654
49	0xbcf09e55	-0.029372374
50	0xbca23a28	-0.019803122
51	0xbda0b860	-0.07847667
52	0x3a8c3439	0.0010696716
53	0x3d45139c	0.048114404
54	0xbce1fd81	-0.0275867
55	0xbe3a289c	-0.18179554
56	0xbd05fab7	-0.032709803
57	0x3d8949e6	0.06703548
58	0xbbb30141	-0.005462796
59	0xbd852ff7	-0.06503289
60	0xbcc48ee6	-0.02399392
61	0xbd6760c5	-0.05648877
62	0x3c870645	0.016482482
63	0x3d3607e2	0.04444111
64	0x3cbab49d	0.022791201
65	0xbcbd11b6	-0.023079734
66	0x3d153edd	0.036436904
67	0xbe137ce3	-0.14403109
68	0xbd8e9796	-0.069625065
69	0xbc97258d	-0.018450523
70	0x3ce7872d	0.028262699
71	0x3da4c0cc	0.080445856
72	0x3db420bc	0.08795306
73	0x3c68ada5	0.014201556
74	0x3d58bcd0	0.05291444
75	0x3d315305	0.043292064
76	0xbb8a8345	-0.0042270743
77	0xbd8c1b1a	-0.06841107
78	0xbd3520c3	-0.044220697
79	0x3c923f0e	0.017852332
80	0xbd6120a6	-0.054962777
81	0xbbc32556	-0.0059553785
82	0xbca0b4c2	-0.019617442
83	0x3e2cf81d	0.16891523
84	0x3d666280	0.05624628
85	0x3d030b83	0.0319934
86	0xbc28a6a4	-0.0102936365
87	0x3d9ee0ac	0.077576965
88	0x3cd42dbc	0.025900714
89	0x3c228d19	0.009921336
90	0xbdce45ef	-0.100719325
91	0xbdb20f6d	-0.086943485
92	0x3d16d333	0.03682251
93	0x3c3b9aac	0.011450451
94	0xbd8907b5	-0.06690923
95	0xbd1de41b	-0.038547616
96	0x3dabeda2	0.08394934
97	0xbd23e1d0	-0.040010273
98	0xbc4605ef	-0.012086376
99	0xbcb7f8d1	-0.022457512
100	0x3cea0300	0.028565884
101	0x3d551399	0.052020643
102	0xbdc44a08	-0.09584433
103	0xbd7c598e	-0.061608844
104	0x3cc143af	0.023591844
105	0xbd1b13bb	-0.037860613
106	0xbd0e9bb1	-0.034816448
107	0xbd0a6fed	-0.033798147
108	0xbc1c4fe6	-0.009540534
109	0xbc83f4a0	-0.016107857
110	0x3ca6e881	0.020374538
111	0xbbb4911f	-0.005510464
112	0x3dbeeabe	0.09322117
113	0xbd8f855a	-0.07007857
114	0xbd262c7d	-0.04056977
115	0x3c942dfe	0.018088337
116	0x3c2e6fe4	0.010646794
117	0xbc69535e	-0.014241068
118	0xbc506463	-0.012719247
119	0xbb4d3086	-0.003130944
120	0x3c301e64	0.010749433
121	0xbc5eac69	-0.0135909105
122	0x3a967004	0.0011477475
123	0xbc45674f	-0.0120485565
124	0xbd3f1004	-0.046646133
125	0x3cdfa914	0.027302302
126	0xbce64d6f	-0.028113095
127	0x3bd3ae13	0.0064599602
128	0xbd3b3620	-0.045705914
129	0x3b71e182	0.0036908095
130	0x3cc9d360	0.024636924
131	0x3c437aad	0.011931104
132	0x3cdead86	0.027182352
133	0x3d3b6392	0.045749255
134	0xbd054c61	-0.032543544
135	0x3bca4eb3	0.0061739325
136	0x3dd7c055	0.10534731
137	0x3d3094e0	0.04311073
138	0xbd40e888	-0.04709676
139	0x3d0fc9a4	0.03510441
140	0xbe1f4c79	-0.15556516
141	0xba98eaea	-0.001166669
142	0xbd3ea526	-0.046544217
143	0x3b7dc13b	0.003871991
144	0x3c929de7	0.01789756
145	0xbd463094	-0.04838617
146	0xbcf71900	-0.030163288
147	0x3c131aee	0.0089785885
148	0xbca5bb3c	-0.020230882
149	0x3c8a56a4	0.016887017
150	0xbc4451fa	-0.011982435
151	0x3d0731f5	0.033006627
152	0x3bd38d67	0.0064560655
153	0xbd019721	-0.03163827
154	0x3d68725e	0.056749694
155	0xbd14ef09	-0.036360774
156	0x3d7f1934	0.062279895
157	0xbd15b03c	-0.036545023
158	0x3d320b2d	0.04346769
159	0xbd0e93ef	-0.03480905
160	0x3ce9aecb	0.02852573
161	0xbb9072f1	-0.0044082333
162	0x3c921b95	0.017835418
163	0xbd377515	-0.044789393
164	0x3d3d7707	0.04625609
165	0x3ce9178b	0.028453609
166	0xbd2154d8	-0.039387554
167	0x3b0bc750	0.0021328516
168	0x3a4181f3	0.00073817297
169	0x3c7e4a98	0.015520714
170	0xbd3638aa	-0.044487633
171	0xbbcc0996	-0.0062267287
172	0xbc700acd	-0.014651013
173	0x3b761497	0.0037548894
174	0x3ce8fecc	0.02844181
175	0xbce46f8f	-0.027885227
176	0x3dd144b5	0.10218183
177	0x3d17f250	0.03709632
178	0xbe0e17a6	-0.13876209
179	0xbce88937	-0.028385742
180	0xbdb9d97f	-0.09074687
181	0xbc60a71e	-0.013711719
182	0xbac65262	-0.0015130753
183	0x3d09127d	0.033464897
184	0xbcb09575	-0.021555642
185	0xbbb440f3	-0.0055009066
186	0xbd48309f	-0.048874494
187	0x3d15a7bd	0.03653692
188	0x3c2f5b55	0.010702928
189	0x3d2c1709	0.042014156
190	0x3da06e63	0.078335546
191	0xbcb97d6c	-0.022642814
192	0xbc98b9ce	-0.018643286
193	0xbd0031e9	-0.031297598
194	0xbd16f257	-0.036852207
195	0xbd88dbd8	-0.06682557
196	0xbc974458	-0.018465206
197	0x3b2cdacb	0.0026375528
198	0xbb2c5213	-0.0026294037
199	0x3d47395b	0.048638683
200	0xbb4cca84	-0.0031248638
201	0xbd212912	-0.03934581
202	0xbd2e5dbf	-0.042569872
203	0x3e125f09	0.14294066
204	0x3d7f7db5	0.062375743
205	0x3d23c187	0.039979484
206	0xbc708b61	-0.014681668
207	0x3cf601e1	0.030030193
208	0xbc8fa7d8	-0.017536089
209	0xbb5c58f4	-0.0033622356
210	0xbd8c0641	-0.0683713
211	0xbb8ed018	-0.004358303
212	0xbd9b178d	-0.07572851
213	0x3b7ce349	0.003858762
214	0xbd20f26b	-0.039293688
215	0x3ca856a2	0.020549122
216	0xbd2c47e2	-0.04206074
217	0x3cdad44d	0.026712561
218	0xbcf1766e	-0.029475417
219	0x3c54bfef	0.012985214
220	0x3d79f8a8	0.061028153
221	0x3da2f538	0.07956928
222	0x3d45ed42	0.04832197
223	0x3d38c9a3	0.04511417
224	0x3d53bd02	0.051693924
225	0xbc63510f	-0.013874306
226	0xbdd0dfcd	-0.101989366
227	0xbdfdd21b	-0.1239359
228	0xbcf8a3c4	-0.030351527
229	0x3cd9c19f	0.026581584
230	0x3d2d3431	0.0422861
231	0xbba4fcc3	-0.0050350144
232	0xbd63d048	-0.055618554
233	0xbd3b4e56	-0.045729004
234	0x3dcd9866	0.10038833
235	0x3d044470	0.03229183
236	0x3cc8b197	0.024498744
237	0x3dd4d2af	0.10391747
238	0x3dbe3eec	0.09289345
239	0xbb182d35	-0.0023220305
240	0x3d6bda3d	0.057581175
241	0x3d8c0579	0.06836981
242	0xbdf2d070	-0.118561625
243	0xbd994e89	-0.074856825
244	0x3ce46728	0.02788122
245	0x3db232de	0.087011084
246	0xbd42cff8	-0.047561616
247	0xbd4d9bf9	-0.050197575
248	0xbc939f31	-0.018020244
249	0x3df60434	0.120125204
250	0x3cce572e	0.025188055
251	0xbc336395	-0.010949035
252	0x3d7b6f54	0.061385468
253	0xbc84eb71	-0.016225548
254	0x3d5b9c01	0.053615574
255	0x3b8dc468	0.004326392

fc1.bias f4 [50]
0	0xbd315e4e	-0.043302827
1	0x3db232ff	0.08701133
2	0x3d044f71	0.032302324
3	0x3cfcd9c9	0.030865567
4	0x3dc0bb5e	0.094107375
5	0xbc994543	-0.018709784
6	0xbcab8600	-0.02093792
7	0x3cf6ba14	0.030118026
8	0xbbdfc209	-0.0068285507
9	0x3c8e2655	0.017352263
10	0x3dd52b9c	0.104087085
11	0x3dcfe722	0.10151507
12	0xbc1f2215	-0.009712716
13	0x3cf6d516	0.030130904
14	0x3db1635a	0.08661528
15	0x3c0e3230	0.008678958
16	0x3d4b5405	0.049640674
17	0x3d86fa5f	0.06590723
18	0xbcc5e9e4	-0.02415938
19	0x3c85ba35	0.016324142
20	0x3d81270d	0.063062765
21	0xbd4b08e5	-0.04956903
22	0x3d858255	0.065189995
23	0x3c5a6b6f	0.013331278
24	0x3d4385b9	0.04773495
25	0x3ccc355d	0.02492779
26	0x3d6eb382	0.05827666
27	0x3d9512d7	0.07278984
28	0xbd20b2f1	-0.03923315
29	0x3d48bca8	0.04900804
30	0x3cae72a5	0.021294901
31	0x3db5eda4	0.08883217
32	0xba93dd9d	-0.0011281256
33	0x3d5989d8	0.053109974
34	0x3d2fa6cc	0.04288368
35	0x3d915e17	0.07098024
36	0x3e18969c	0.14901203
37	0x3d22c96f	0.039742883
38	0x3c21863a	0.009858662
39	0x3dff1767	0.124556355
40	0x3b9e6cb0	0.004834734
41	0x3c9a9fb0	0.018874973
42	0x3dd42f46	0.10360579
43	0xbd54674e	-0.05185633
44	0x3cf8abc7	0.030355347
45	0x3db90c2d	0.090355255
46	0xbd273a06	-0.04082682
47	0x3cdc48ba	0.026890147
48	0x3d229f7b	0.039702874
49	0x3cfb8295	0.030701915

fc2.weight f4 [10, 50]
0	0xbdaa1386	-0.08304505
1	0xbe43ec31	-0.19133069
2	0x3e3bc212	0.1833575
3	0x3cc595ac	0.02411922
4	0x3d8d414f	0.06897222
5	0x3eaee835	0.34161535
6	0x3e90e9f7	0.283035
7	0xbe8e7f5e	-0.27831548
8	0xbe59cbb9	-0.2126912
9	0x3e649b44	0.22324854
10	0xbe21354a	-0.15742984
11	0xbeb1a256	-0.34694165
12	0xbe9620a1	-0.2932177
13	0xbcb5d709	-0.022197263
14	0x3b9d5cea	0.004802336
15	0xbe2704a6	-0.16310367
16	0xbe77aa68	-0.24186099
17	0xbe7aae3e	-0.2448053
18	0xbe60e1ac	-0.21961087
19	0x3e58c6ae	0.2116954
20	0xbeaf1df2	-0.34202534
21	0xbdb5d2f4	-0.08878127
22	0x3e4ae427	0.19813596
23	0x3e31bbc5	0.17356785
24	0xbeaac517	-0.33353493
25	0x3e4ee84a	0.20205799
26	0xbe4df39e	-0.20112464
27	0xbea5b38d	-0.3236355
28	0x3e85b014	0.261109
29	0x3e102897	0.14077984
30	0x3e72c3d0	0.23707509
31	0xbe2050f4	-0.15655881
32	0xbe1de1ed	-0.15418215
33	0xbcc21ada	-0.023694444
34	0x3e941aef	0.289268
35	0x3e4d7e15	0.20067628
36	0xbe925b8d	-0.28585473
37	0xbe652e96	-0.22381052
38	0xbe1b92e6	-0.15192756
39	0xbe92a720	-0.2864313
40	0x3e78ac66	0.24284515
41	0x3eb3d718	0.3512504
42	0xbec0bbb5	-0.3764321
43	0xbd719aac	-0.058985397
44	0x3d97e712	0.0741712
45	0x3eafcf1b	0.34337696
46	0x3d8b98bf	0.068162434
47	0xbe9e1c52	-0.30880982
48	0x3cec769a	0.028865147
49	0x3e548810	0.20755029
50	0xbca4c048	-0.020111218
51	0x3eb0e556	0.3454997
52	0xbdebde1a	-0.11516972
53	0xbe34b195	-0.17645867
54	0xbe960504	-0.29300702
55	0xbe0d838a	-0.1381971
56	0xbea4acb1	-0.32163003
57	0xbe25fcd7	-0.16209732
58	0xbd6241a1	-0.05523837
59	0x3df4518e	0.11929618
60	0x3e824c96	0.25449055
61	0x3e96f908	0.2948687
62	0x3e922751	0.2854562
63	0xbe5ac75a	-0.21365109
64	0x3ebd443b	0.36966118
65	0x3e785c6d	0.24254008
66	0x3e1d47e9	0.15359463
67	0x3e515814	0.20443755
68	0xbe6d50ca	-0.2317535
69	0xbe8a76a1	-0.27043632
70	0x3e15660a	0.14589706
71	0xbe4110b6	-0.18854031
72	0xbe82df00	-0.2556076
73	0xbeafe836	-0.3435685
74	0xbdde87a9	-0.10865719
75	0xbe6c31fe	-0.23065946
76	0xbedba5e8	-0.42900014
77	0x3e74c6fe	0.23904034
78	0xbe1611b6	-0.14655194
79	0xbe6fe550	-0.2342732
80	0xbe373dfd	-0.1789474
81	0x3e8dea62	0.27717882
82	0xbe766fc9	-0.2406608
83	0x3e8610fd	0.26184836
84	0xbccfd947	-0.02537216
85	0xbe3fba18	-0.18723333
86	0x3e93c0ea	0.2885812
87	0xbe70a7d2	-0.23501518
88	0xbd01a103	-0.031647693
89	0x3e602126	0.21887645
90	0xbe8a1804	-0.26971447
91	0xbe42244b	-0.18959157
92	0x3e1a0835	0.15042193
93	0xbe5c8e67	-0.21538697
94	0xbe87cd25	-0.265237
95	0x3db93e01	0.090450294
96	0xbdd0b3ce	-0.10190545
97	0x3e46be39	0.19408502
98	0xbeb20b6e	-0.34774345
99	0xbe722d8d	-0.23650189
100	0xbe47bc8f	-0.19505523
101	0xbe18047b	-0.14845459
102	0x3e6a88a9	0.22903694
103	0xbe2eda5f	-0.1707549
104	0xbeb95600	-0.36198425
105	0x3e5ce3ea	0.21571317
106	0xbe5bb6b0	-0.21456409
107	0x3e3885e2	0.18019822
108	0xbde3e448	-0.111275256
109	0x3c854abe	0.016270991
110	0xbd52208c	-0.05130057
111	0x3eb99588	0.36246896
112	0x3cbb2bdc	0.022848062
113	0xbd9412a9	-0.07230122
114	0xbd6aaec4	-0.057295576
115	0x3cc7cc63	0.024389451
116	0x3dfa9d04	0.122369796
117	0xbdcef498	-0.10105246
118	0xbe3a6ed7	-0.18206345
119	0xbdb98d93	-0.09060206
120	0x3e7580a2	0.23974851
121	0x3e716a65	0.23575743
122	0xbd650633	-0.055914115
123	0x3d9344fc	0.07190892
124	0x3db4ee86	0.08834557
125	0x3e28d916	0.16489062
126	0xbdc0160d	-0.09379206
127	0x3e91e809	0.2849734
128	0x3e726814	0.23672515
129	0xbe6235d6	-0.2209085
130	0x3e6d965b	0.23201887
131	0xbec60cbb	-0.38681588
132	0x3e96e94d	0.2947487
133	0x3e937a18	0.28804088
134	0x3e347a72	0.17624834
135	0x3e460df5	0.19341262
136	0xbd220a6d	-0.039560724
137	0xbdf65233	-0.12027397
138	0x3e949899	0.29022673
139	0x3e7c998b	0.24667947
140	0xbd9a3fb0	-0.07531679
141	0xbd88626c	-0.066593975
142	0xbed090d8	-0.40735507
143	0xbe1a655b	-0.15077727
144	0x3e6ad85f	0.22934102
145	0x3e15e1e4	0.14636952
146	0xbe013d15	-0.12620957
147	0xbe539b2d	-0.20664664
148	0xbc16aead	-0.009196919
149	0x3e86b6f0	0.26311445
150	0x3c3a879c	0.011384871
151	0xbe1ea9a4	-0.154944
152	0xbe064914	-0.13113815
153	0xbe956b33	-0.2918335
154	0xbe7cce91	-0.24688174
155	0xbd9bc490	-0.07605851
156	0x3e4af1bf	0.19818781
157	0x3e668630	0.22512126
158	0x3e9ee1f4	0.31031764
159	0xbe69b7df	-0.22824048
160	0xbe033b06	-0.12815484
161	0xbe5b0187	-0.21387301
162	0x3e375dae	0.1790683
163	0x3bb622de	0.0055583557
164	0xbe21e9aa	-0.15811792
165	0xbe1ab5ad	-0.15108366
166	0xbe8014a0	-0.25015736
167	0x3ea50e03	0.32237253
168	0x3e7ea26d	0.24866648
169	0xbdfcf540	-0.12351465
170	0x3e1e2e7a	0.15447417
171	0x3bcd39aa	0.0062629776
172	0xbe786135	-0.24255832
173	0x3e523d24	0.20531136
174	0xbe91db4f	-0.28487632
175	0x3e499ef2	0.19689539
176	0xbe25ae37	-0.16179739
177	0x3e11e956	0.14249167
178	0x3e8fcd19	0.28086165
179	0x3e72baaf	0.23704027
180	0x3d69067d	0.056890953
181	0x3eaf4833	0.3423477
182	0x3d969e94	0.07354465
183	0xbe31b2b1	-0.17353322
184	0xbe8c874c	-0.27446973
185	0x3e599aae	0.21250412
186	0x3e23c39b	0.15992586
187	0xbd8b8f99	-0.068144985
188	0xbd5e372b	-0.05425183
189	0x3e934f2f	0.2877135
190	0xbe1f9ae2	-0.15586427
191	0xbd5bbb91	-0.053645674
192	0x3d23db68	0.040004164
193	0x3e4a4cfc	0.1975593
194	0x3e81808f	0.25293395
195	0xbdeb85ea	-0.115001515
196	0x3df74f4d	0.12075672
197	0xbe859037	-0.2608659
198	0x3d64976c	0.05580847
199	0xbde7673e	-0.11298989
200	0xbe202b28	-0.15641463
201	0x3e88fcf6	0.26755494
202	0xbe8050ea	-0.25061733
203	0x3e85b814	0.26117003
204	0xbd1d9786	-0.038474582
205	0xbd4c91f9	-0.049943898
206	0xbcb2f802	-0.021846775
207	0x3e9f2c4c	0.31088483
208	0xbdf33f7f	-0.11877345
209	0x3e57795b	0.21042387
210	0x3d2dc535	0.0424244
211	0xbe137625	-0.14400537
212	0x3ccacb6d	0.024755204
213	0x3e72755d	0.23677583
214	0x3bb38be6	0.0054793237
215	0x3e9b4f97	0.3033416
216	0x3e9f1f17	0.31078407
217	0xbe1d17e4	-0.15341145
218	0xbba8e710	-0.005154498
219	0xbd6610c9	-0.05616835
220	0xbea68dad	-0.32529965
221	0x3e67ea73	0.22648029
222	0x3d9fd6ea	0.078046635
223	0xbe943195	-0.28944078
224	0x3edc382a	0.430116
225	0xbea4f00a	-0.32214385
226	0x3ea295ea	0.31755
227	0xbe6762a0	-0.22596216
228	0xbe57d6da	-0.21078053
229	0xbe783c79	-0.24241818
230	0x3da50e7c	0.08059403
231	0xbe00b293	-0.1256812
232	0x3e156679	0.14589871
233	0x3c873d73	0.016508793
234	0xbdd59373	-0.10428514
235	0xbd9de571	-0.07709778
236	0xbe2f8947	-0.17142211
237	0x3e23ce24	0.15996605
238	0xbe5a4db2	-0.21318701
239	0xbe36e7eb	-0.17861907
240	0xbdc5369d	-0.09629557
241	0xbd590617	-0.052984323
242	0x3e86db7e	0.26339334
243	0xbd89d0dc	-0.0672929
244	0xbe98a71b	-0.2981499
245	0xbeaa7802	-0.33294684
246	0x3cce0ce8	0.025152639
247	0x3e81f2b9	0.25380495
248	0x3e8498fc	0.25897968
249	0xbe143dce	-0.14476702
250	0x3ea6080c	0.32428014
251	0xbdd2b06e	-0.102875575
252	0xbe94f3d9	-0.2909229
253	0xbdee89a6	-0.11647348
254	0x3d1f831d	0.0389434
255	0xbdbb184a	-0.09135492

fc2.bias f4 [10]
0	0xbddaf1f4	-0.1069068
1	0x3e46ac98	0.19401777
2	0xbe82e4b7	-0.2556512
3	0xbdee5f12	-0.11639227
4	0x3d9d7f16	0.07690255
5	0x3e038279	0.1284274
6	0xbdfdcb86	-0.12392335
7	0x3da9acc0	0.082849026
8	0x3e1cd650	0.15316129
9	0x3e633b91	0.22190692
