Week4/model.pt (torch_old, 406978 bytes, 20 tensors)

hidden1.weight f4 [100, 784]
000000 71 ae ca bc 0f 19 0d 3c a1 9f cb 3c 7d 9a 4a 3b
       -0.024741383 0.008611931 0.02485639 0.0030914836
000010 7d f8 3a bc 6d fe 88 bc 9b 5b 53 bc eb d7 e6 bc
       -0.011411783 -0.016722882 -0.012900258 -0.02817913
000020 db 26 9b bc 2d 92 ad bc 71 a8 ce 3c 39 71 6d 3c
       -0.018939426 -0.021187866 0.025226803 0.014492326
000030 97 b6 40 3c df 5f b0 bb 79 ed 95 bc 45 4f b5 bb
       0.011762283 -0.0053825225 -0.018301712 -0.0055331313
000040 77 ba 70 3c 40 a4 0a bd 1d 40 8a bc 17 19 c5 bb
       0.014692894 -0.033848047 -0.016876275 -0.006014954
000050 27 8b c2 bc 27 6c e8 bc d1 d9 86 bc 70 43 3a ba
       -0.023747994 -0.028371884 -0.016461285 -0.0007105386
000060 83 62 22 3b 32 54 89 bb 6f 47 01 3c 65 e8 41 bc
       0.0024777956 -0.004190945 0.007890566 -0.011835192
000070 4d bb fb 3a 9d 4b bc 3c d4 4a 00 bd ad c9 08 3c
       0.00192056 0.022985274 -0.03132136 0.0083488645
000080 4e c4 2b bd cb 58 3c bc f8 27 04 bc 15 c5 7d 3c
       -0.041935258 -0.011495779 -0.00806617 0.015488883
000090 77 56 cf bc 35 81 6e 3c e0 73 b8 bc a6 4a 46 3b
       -0.025309784 0.014557173 -0.022516191 0.0030256896
0000a0 43 98 a8 bc cf 95 17 3c b5 1d 2b bd 28 c1 95 bc
       -0.020580417 0.009252026 -0.041776378 -0.01828058
0000b0 d4 6a 86 3b 55 e1 17 bb f7 10 ba 3c 31 7c b5 3c
       0.0041020904 -0.002317508 0.022713168 0.022153946
0000c0 e3 e1 f5 3a 79 4c 4b 3c 01 16 1f 3c 1f cc 3e 3c
       0.0018759336 0.012408369 0.009709836 0.011645346
0000d0 39 68 e0 bc f3 85 07 3c 5b 21 1e 3c fb 98 24 bd
       -0.027393447 0.008271682 0.009651507 -0.040184956
0000e0 c3 41 8c bc 1f c9 9a 3c c5 ab cf 3c a6 42 7d 3c
       -0.017121201 0.01889473 0.02535046 0.015457785
0000f0 dd c0 1d bd ad b9 9c bb 46 1e 01 bb 16 fe 93 3a
       -0.038514007 -0.0047828765 -0.0019701882 0.0011290933
000100 3b 2a 36 bc e6 05 82 3c af 07 e1 3c a1 24 ca bc
       -0.011118467 0.015871953 0.027469484 -0.02467567
000110 0b bf a9 3b f5 94 b3 3c 30 fb 1a bc f9 a3 4c 3c
       0.005180245 0.021921614 -0.009459302 0.012490266
000120 18 1f 20 bd 7c 59 16 bd 5b 0d 00 3c b3 78 21 bd
       -0.039092153 -0.036706433 0.007815684 -0.03942175
000130 13 55 fa bc 01 d9 1a bd c2 35 1a bd 50 ea be bc
       -0.030558145 -0.037804607 -0.037648924 -0.023305088
000140 c6 5b 59 bc 99 28 67 bc 23 cc a8 bc ad 9f fe bc
       -0.013266509 -0.0141088 -0.020605152 -0.031081999
000150 83 71 75 3c 65 31 94 bc bf 7d 35 bc 6e 23 c1 3c
       0.014980677 -0.01808996 -0.0110773435 0.023576465
000160 5c d9 0e bd f8 45 c6 3c 26 c1 78 bc f0 a3 a3 3c
       -0.03487526 0.024203286 -0.015182769 0.019975632
000170 ed cf 52 3c 9e 7a f2 3b 8e ae 9a 3c ee d8 bc bc
       0.012866956 0.007399871 0.018882062 -0.023052659
000180 43 6e ee bc a5 13 99 3b ba b3 cc 3b bf 29 21 bd
       -0.029105311 0.0046715313 0.006247011 -0.039346453
000190 f4 3a 25 bd 2a 4f f5 bc c0 d7 a8 bc 0a b0 33 bd
       -0.040339425 -0.029944975 -0.02061069 -0.043869056
0001a0 10 f7 58 bc ef fe d0 bc 37 35 d7 bc 01 9d 23 bb
       -0.013242498 -0.025512187 -0.026270492 -0.0024965408
0001b0 c2 38 dd bc 7e 11 2a bd 1b 8d b3 3c a9 45 82 3c
       -0.027004603 -0.041520588 0.02191787 0.015902357
0001c0 85 be b5 3c 98 07 30 bd 71 ef d6 3a 41 6f 55 bc
       0.022185573 -0.042975992 0.0016398263 -0.013027013
0001d0 81 f1 88 bc 4f 0a 87 3c a5 cb a4 3c 57 0d 1e bd
       -0.01671672 0.016484408 0.020116637 -0.03858694
0001e0 e2 ee 36 bb 6c c1 35 bd 3b 5d c7 bc 9c 85 b4 bb
       -0.0027913381 -0.044373915 -0.024336448 -0.0055090915
0001f0 1d 99 1f bd 54 39 ee bc 34 24 a1 39 7c 31 ed bc
       -0.03896438 -0.02908007 0.00030735286 -0.02895426
000200 2b fd 24 bc 13 e9 09 bd 42 9b a7 3c 5e 63 05 bd
       -0.010070126 -0.033669543 0.020459775 -0.032565467
000210 e5 29 12 3b 85 98 d7 bc d7 67 77 3c ac a0 2a bd
       0.0022302803 -0.026317844 0.015100441 -0.041657135
000220 49 b1 15 bd a9 c1 04 bd 07 0b 87 bc 12 43 ca bc
       -0.036546025 -0.03241125 -0.01648475 -0.024690185
000230 2b d4 eb bc 89 1e d1 bc b6 0c 99 bc 29 ee e3 3b
       -0.028787693 -0.025527256 -0.018682819 0.006955881
000240 af f2 86 3b 66 64 97 3c ac f2 3c bd 23 99 2b bb
       0.0041182856 0.01848049 -0.046129867 -0.0026183806
000250 79 1f 14 3c 1b d9 1a 3c 55 d5 2e 3c 8e de 9d bb
       0.009040707 0.009451176 0.0106709795 -0.0048177904
000260 2e 00 70 3c 82 53 51 3c d5 68 45 3b c8 09 8c b9
       0.01464848 0.0127762575 0.00301223 -0.00026710168
000270 a6 d4 8a 3c 7f ea d5 3c 72 f7 ba bc 76 5f f5 bc
       0.016947102 0.026112793 -0.02282307 -0.029952746
000280 bd b0 6e bc f8 81 c0 3c 2e 8c 8a 3b 3e 9a 08 bd
       -0.014568505 0.023499474 0.0042281365 -0.03335022
000290 15 93 e8 bc 66 e8 e7 bb 0d 52 a7 3c 79 0b f0 bc
       -0.028390447 -0.0070772646 0.020424867 -0.029302346
0002a0 cb 31 39 bc 2a f1 90 3c ef be 00 bd 6d 49 1f bb
       -0.0113033755 0.017693121 -0.03143209 -0.002430524
0002b0 f1 d0 35 bc dd c6 5f bc ca e8 4e bc 1a a3 67 bb
       -0.011097179 -0.013658253 -0.012628743 -0.003534502
0002c0 55 ad 82 bb 42 7c 58 3c f6 3b 47 bc 45 50 2b bb
       -0.003987948 0.013213219 -0.012160292 -0.0026140374
0002d0 7e ef 57 b9 60 28 d4 3b bb a0 84 3c 91 92 52 3c
       -0.00020593216 0.0064745396 0.016189924 0.012852327
0002e0 0a 62 86 3d 6b ee c8 3c f7 89 5a 3d 02 57 da 3c
       0.06561668 0.024527749 0.05335423 0.026652817
0002f0 24 b9 01 3d bf b6 b7 bc 53 f7 e1 3c f2 0d e1 3c
       0.031670704 -0.022426007 0.027583754 0.02747247
000300 a3 ec ab 3c 01 0a 52 ba 19 66 0f 3c 39 15 1c 3c
       0.02098686 -0.0008012355 0.008752369 0.009526544
000310 53 04 9a bb 1f a6 19 bd 7a 90 93 3c 19 53 c9 3c
       -0.0047002225 -0.03751194 0.018013228 0.024575757
000320 29 33 15 bc 5a 3c 0f bc 27 0b 92 3c 08 f1 32 bc
       -0.009106436 -0.008742416 0.017827583 -0.010921724
000330 18 13 cd 3b 00 e5 98 bc d2 a6 eb bb ed 42 5e 3d
       0.0062583797 -0.018663883 -0.0071915174 0.054263044
000340 3a f9 45 3d 4f c5 57 3d 89 59 72 3d 21 24 8b 3d
       0.048333384 0.052678403 0.05916742 0.067940004
000350 b2 ff 89 3d 7d 4c 28 3d 13 48 24 3d bc 8a 2e 3d
       0.06738223 0.04108857 0.040107798 0.042612776
000360 e0 6e 1b ba 23 90 f1 3c fb 3e 92 3b 37 39 f0 3b
       -0.00059293024 0.029487675 0.0044630743 0.0073310393
000370 e0 45 9b 3c bd 58 9f 3c 45 28 d1 bb b9 b9 fa 3b
       0.018954217 0.019451493 -0.0063829743 0.0076515344
000380 3b ac e1 3c 58 75 2d 3c 25 48 af bc 07 8f 08 bd
       0.027547946 0.010587059 -0.021396706 -0.033339527
000390 cb 86 00 bd 52 b9 2f bc e9 1f 52 3c 4c 3b 6c 3c
       -0.03137855 -0.010725336 0.012824991 0.014418434
0003a0 01 08 95 3c 33 b2 12 3d 90 8d c2 3c 33 db 92 3c
       0.018192293 0.035814475 0.023749143 0.017926788
0003b0 ee 7c 3f 3c 49 42 64 3d cb ae 83 3d ab c4 38 3d
       0.0116875 0.055727277 0.064298235 0.045109432
0003c0 13 8a c9 3a 9b 4d 2c 3d 6a 34 35 3d df 10 24 3d
       0.0015376232 0.042066198 0.04423944 0.040055152
0003d0 35 9b 3e bc 58 f2 ef bb 6c d3 bd 3c de d4 cf 3c
       -0.011633684 -0.007322591 0.023172103 0.025370058
0003e0 1b 17 0a bb 95 01 da 3c d1 4a 00 bc d8 a2 17 39
       -0.00210709 0.026612082 -0.007830338 0.00014461146
0003f0 32 8b 4b bc 1e 5e d1 3c 64 51 f2 bc 93 7f 5c 3c
       -0.0124233235 0.025557574 -0.029579826 0.01345815

hidden1.bias f4 [100]
000000 50 b9 58 3c b7 c0 83 bc c5 0a a3 3c 7e f8 b3 bc
       0.013227776 -0.016083105 0.019902596 -0.021969076
000010 cd bb 9e 3c 9b ed 3a 3d f5 73 ad 39 22 dd fd bc
       0.01937666 0.045636754 0.00033083526 -0.030989233
000020 96 c6 b6 bc 4f 4a 7b bc c4 ba a1 3c 02 d0 3c 3d
       -0.02231149 -0.015337541 0.019742377 0.04609681
000030 64 a0 bb bc f4 ec e0 bc 06 a0 4f bc 7d 05 ad ba
       -0.022903629 -0.027456738 -0.01267243 -0.0013200488
000040 b3 2e fe 3c 4d fc a3 3c 53 c8 a8 bc 94 a4 0c bc
       0.031028127 0.020017767 -0.020603335 -0.00858416
000050 91 6e a4 3c 82 6d 5f 3a cd f2 19 bd 2c 4c 44 3b
       0.020072253 0.0008523093 -0.03758507 0.0029952629
000060 49 f5 a2 3c 2c d8 a8 3c 9a 16 7c 3c b8 41 06 bd
       0.019892352 0.020610891 0.015386248 -0.032777518
000070 38 e0 f7 b9 4f 93 0c 3d bd ac aa 3a c5 62 06 3d
       -0.00047278567 0.034320172 0.0013021451 0.032809038
000080 6e 48 99 bc 06 46 80 bb 33 e1 1f 3d 4f 47 ef 3c
       -0.018711295 -0.0039145974 0.039033126 0.029208807
000090 76 e5 f7 b9 dd 69 f2 bc c1 de a1 3c 19 0c 0e 3d
       -0.00047282473 -0.029591495 0.019759538 0.034679506
0000a0 3e 33 57 3b 34 e2 03 bd 9a cd d9 3c 73 8f c6 bb
       0.003283694 -0.032198146 0.026587296 -0.006059581
0000b0 04 61 ca bc b0 5a 6b 3c 77 75 88 bc 53 0a 4e bc
       -0.024704464 0.014364883 -0.016657574 -0.012575704
0000c0 48 4d a0 bb 22 e3 48 3c d9 93 3b bb 6b ea bb 3c
       -0.004892025 0.012261184 -0.002862206 0.022938928
0000d0 9d f5 12 3d fa 9c ed bc a4 1c 96 3b 3e 54 0d bd
       0.035878766 -0.029005516 0.004581051 -0.034504168
0000e0 fb d1 11 3d 52 89 db bc fc b7 f1 3c 82 f3 05 bd
       0.035600644 -0.026798878 0.029506676 -0.03270293
0000f0 d8 16 e5 bc 41 4b 3a bb 5b e3 ac bc d7 d2 f3 3c
       -0.027964994 -0.0028426202 -0.021104505 0.029763622
000100 6f 31 e5 3c 76 c9 bf 3b 77 43 12 3d b5 06 a7 bc
       0.027977673 0.0058528734 0.03570887 -0.02038894
000110 62 bb 20 bc 58 0a 02 bc e4 e1 02 bd 58 50 dc 3c
       -0.009810301 -0.007937036 -0.031953707 0.02689378
000120 6f fd dc bc f2 d4 43 bb 96 f1 49 3c d3 45 31 3c
       -0.026976315 -0.0029881564 0.012325665 0.01081987
000130 32 bd d6 3b 7a 73 d2 3b 36 29 dd 3c 5d af a9 b9
       0.0065533156 0.0064224573 0.02699719 -0.00032364848
000140 fe 8f 95 3c 05 3a 94 bb 65 e0 d3 bc 96 0e f7 3c
       0.018257137 -0.004523518 -0.025863836 0.030158322
000150 16 0d 8b bb a5 13 f0 3c 67 ed 56 3b f7 43 a9 3b
       -0.0042435033 0.029306242 0.0032795311 0.0051655727
000160 81 81 cc 3c 0e 27 d8 3c a1 aa b6 bc fa 70 4b 3c
       0.024964096 0.02638581 -0.02229816 0.012417072
000170 56 82 38 3d 8d e4 58 3c 87 41 27 ba 50 b2 cc bc
       0.045046173 0.0132380845 -0.0006380309 -0.02498737
000180 88 8f ab 3c b3 33 83 bb c2 41 99 bc 0c d4 60 3b
       0.020942464 -0.0040039658 -0.018708114 0.0034306077

hidden2.weight f4 [100, 100]
000000 2e 69 af bd cc b2 11 3d 80 47 eb 3d 0a 70 d9 3d
       -0.08564983 0.035570905 0.11488247 0.10617073
000010 8a 3c f9 3c e1 2a 52 3c bd 6d eb 3c c1 04 bf bd
       0.030424375 0.012827606 0.02873885 -0.093270786
000020 e1 bb 6d 3d 4d 1e 4f 3d 02 86 d8 3b d5 9b 8e 3d
       0.058040503 0.050566006 0.006607772 0.06963316
000030 6c 88 7a bd f7 6e 61 3d a1 1d c0 3c 8e 4e 84 bd
       -0.06116526 0.055037465 0.023451628 -0.064602956
000040 0d d9 9c bd 4a 87 10 3e da 3f 32 3d 27 80 6b 3d
       -0.07658587 0.14114109 0.043517925 0.057495262
000050 ba f2 8e 3d 2d 40 b1 3d 27 da fe 3b 88 cc ab bd
       0.0697989 0.08654819 0.0077774706 -0.083886206
000060 ab 5a 11 3d e6 a4 d0 3c e9 e2 93 3b 8e ec 00 3d
       0.03548686 0.025469255 0.004513134 0.031475596
000070 39 14 22 3e 5d 37 a2 3d 91 cb 98 bd 37 76 c0 3d
       0.15828027 0.07920716 -0.07460702 0.09397548
000080 a4 fa 9b 3c 09 04 05 bd 58 91 81 bd 12 03 b1 bc
       0.019040413 -0.03247455 -0.0632655 -0.02160791
000090 bd f3 1f bd 1a 35 87 3d 4d 56 1c bd b0 80 1f 3d
       -0.039050806 0.06601925 -0.03816824 0.038941085
0000a0 a4 e6 b1 bc f0 a6 fb ba 57 7d cc 3c 32 45 19 bd
       -0.021716423 -0.0019199532 0.02496211 -0.037419505
0000b0 68 6e 4a bc b1 48 fc bc f0 8d 19 bd 65 f1 a3 3d
       -0.012355424 -0.03079638 -0.037488878 0.08005027
0000c0 04 28 a2 3d e6 0a 3b 3d fd 88 d1 bd ef d2 0d bd
       0.079177886 0.04566469 -0.102312066 -0.03462499
0000d0 52 01 13 bd 28 60 98 bd ab ae 1d 3d 15 63 b4 3d
       -0.03588993 -0.07440215 0.038496654 0.08807961
0000e0 8d fd b6 3d 22 91 cd 3d fe 77 c0 3d 5d 99 a7 3d
       0.0893508 0.100374475 0.09397887 0.081835486
0000f0 e8 0f ad 3d 1f 14 82 3d aa 60 c2 3c 7e 48 d1 bc
       0.084502995 0.06351494 0.023727734 -0.025547262
000100 84 d4 f1 3d 94 c5 69 3c 82 82 f9 bc 7e be 9c bc
       0.11808112 0.014268298 -0.030457739 -0.019133803
000110 a3 30 a5 3c 4c e3 2b bd dd 39 71 3b a2 b6 bd bd
       0.020164793 -0.041964814 0.003680817 -0.0926335
000120 bb 22 fd 3d 1f d4 0a bd 1b 8b 98 3d 33 9b 9b bd
       0.1236014 -0.0338937 0.07448407 -0.07597961
000130 3a 2e 5e 3d 70 18 ab 3d 24 cc 0a 3c 4a fd f4 3d
       0.054243304 0.083542705 0.0084715225 0.119623736
000140 bc 31 d6 3d 05 2b a0 ba f1 31 a3 3d 8e a5 4f bd
       0.10458705 -0.0012219852 0.0796851 -0.050694995
000150 17 93 16 3d ef b9 cf 3d 43 dd bb bc d3 10 9d bd
       0.03676137 0.10142886 -0.022932654 -0.076692246
000160 19 d7 e7 3d d8 5f 24 3d f2 4a ea 3d e8 51 30 3d
       0.113203235 0.040130466 0.11440076 0.043046862
000170 aa 5c 5d 3c d7 b1 d6 3d 61 d2 55 3d 4d 31 ca bd
       0.013510862 0.10483139 0.052202586 -0.09872685
000180 09 70 be 3d 3f 2d 9a 3d 46 78 52 3d 73 52 a1 3d
       0.09298713 0.07528161 0.051384233 0.07877054
000190 ff 1e b4 3c a0 09 bb 3c a2 ee b1 3d 11 5d af 3d
       0.021987436 0.022831738 0.08688094 0.08562673
0001a0 66 9d 02 bd e6 f5 1f 3a 46 89 09 3c d6 5c 63 bc
       -0.031888388 0.00061020104 0.008394545 -0.013877114
0001b0 7c 81 42 3d 73 d4 9b 3d f8 ce 15 3d 50 99 04 bd
       0.047486767 0.07608881 0.036574334 -0.032372773
0001c0 81 1c 97 3c 45 fb e2 bc d3 ca b4 3c 80 bf 1c bd
       0.018446209 -0.027707705 0.02206937 -0.038268566
0001d0 96 f4 bf bd 8a b2 04 3d b2 d4 cb 3d 34 b0 4a bd
       -0.09372823 0.03239683 0.09952678 -0.049484447
0001e0 51 b6 f5 bb fc d5 b6 3d f6 bd c8 3d e2 47 ea 3c
       -0.0074985404 0.08927533 0.09801857 0.02859873
0001f0 ae 3d 58 bd 02 02 c1 bd 63 80 a3 bc 08 54 a6 bd
       -0.052793197 -0.09424211 -0.01995868 -0.081214964
000200 3b 4b da 3d 5a a8 9d bd e2 a8 ad 3d 64 8e 3c bd
       0.1065888 -0.07698126 0.084794775 -0.04603423
000210 82 61 60 bd 12 c0 d3 bb f7 6c cd 3d aa 00 d4 bd
       -0.05478049 -0.0064621055 0.10030549 -0.10351689
000220 38 56 53 3d ef c8 7b bd e6 60 86 3d 75 2b 8f 3d
       0.051595896 -0.061470922 0.06561451 0.06990711
000230 d2 d8 ae bd 69 6e b3 bd e9 43 ec 3c c8 7b ed bc
       -0.08537449 -0.087612934 0.028840976 -0.028989688
000240 9e 4c 21 bc 24 00 4b bd 84 db 9c 3c 60 96 d5 3d
       -0.009844927 -0.04956068 0.019147642 0.104290724
000250 d8 9a d6 bd 32 c6 5a bd 83 a4 c4 bd 23 07 b6 3c
       -0.10478753 -0.05341167 -0.096016906 0.0222202
000260 f1 d2 9c 3d 5e 4a 97 bd 9f b7 b5 3d 06 4f bf 3c
       0.076574214 -0.07387231 0.088729136 0.023353111
000270 dc 6b 2c 3d be ac a1 bd fd e8 e0 3d bb 14 ba bd
       0.04209505 -0.07894276 0.10981939 -0.09085985
000280 62 cc 62 bd 10 38 c2 3c bc 4a 9b bd 44 0e 7f 3c
       -0.055370696 0.023708373 -0.07582614 0.015567366
000290 7a f0 78 3c 1e fe b1 bc a6 9d 5b bd 1e b3 09 3d
       0.015194053 -0.021727618 -0.053617142 0.033618085
0002a0 c8 e6 42 3d f1 0e 8d 3d b2 37 05 bd d0 71 0f ba
       0.04758337 0.068876155 -0.03252382 -0.00054719765
0002b0 41 a5 0a bd 38 53 3f 3d 76 0b 27 3d 2b f6 4a bd
       -0.033849005 0.046710223 0.040782414 -0.04955117
0002c0 30 3d 4c 3d 2b 19 b3 bd 2b a6 90 3d 87 eb 6a 3d
       0.04986304 -0.08745035 0.07062944 0.057353523
0002d0 35 18 b4 3c 22 af a0 bd c1 fe 97 bd b5 75 dc bd
       0.021984199 -0.07845904 -0.07421637 -0.10764638
0002e0 8c 81 62 3d 82 42 5f bd a2 5a 71 3d e2 c7 9c bb
       0.055299327 -0.054506786 0.058924325 -0.00478457
0002f0 e1 e4 b2 3c c8 f1 94 3d ad b5 b9 bd 55 f2 d5 3d
       0.021837654 0.072726786 -0.09067855 0.10446612
000300 5a 78 6e bc 60 6d 2e 3c 5c a3 5c 3d f6 a8 b7 3d
       -0.014555061 0.010646194 0.05386673 0.089677736
000310 c4 db 88 3d f9 c0 87 3d 2b c7 00 3d f3 1b ac bd
       0.06682542 0.066286035 0.03143994 -0.084037684
000320 f2 02 24 3e 5d a4 96 bd 97 cb 9c 3d 3b ab ae 3d
       0.16016749 -0.073555686 0.07656019 0.08528753
000330 dc 8c c1 3d fe d1 81 3d 50 37 2a 3d f8 6a 9a bd
       0.09450695 0.06338881 0.041556656 -0.07539934
000340 8c e9 24 3e a4 7c 95 bc 59 ba e1 bc 5b 3e 04 3e
       0.16104716 -0.01824791 -0.027554678 0.12914412
000350 d6 4e e6 bd 44 56 07 bd d0 01 8d bb 9b f7 7f bd
       -0.112455055 -0.033041254 -0.0043031946 -0.062491994
000360 61 5c fb 3c e9 9d e6 3d 9a f3 2b bd 98 d9 9d 3c
       0.030683698 0.11260588 -0.041980363 0.019268796
000370 ff 95 2b 3c a3 50 2d 3b 37 8c 00 ba 53 9b d1 bd
       0.010472774 0.0026445768 -0.0004903706 -0.10234704
000380 bf ba 88 bc 6b fd dc bc 73 3a c4 ba 1a 81 13 bd
       -0.01669061 -0.026976308 -0.0014971033 -0.036011793
000390 07 ff 17 3e 6b 8f d5 bd dd 10 9c 3d 3c 6f bb bc
       0.14843379 -0.104277454 0.07620404 -0.02288019
0003a0 a1 7a ab bc 60 73 6d 3b 83 b9 fe 3d 22 9c 95 bd
       -0.020932497 0.00362321 0.12437727 -0.073051706
0003b0 00 0d 59 bd 12 87 0f 3e 25 9b fe bd 9b 40 a8 3d
       -0.052990913 0.14016369 -0.12431935 0.082154475
0003c0 7f 55 c9 3b 04 35 58 bb b2 f1 e7 3d cb db 28 bd
       0.006144225 -0.0032990584 0.113253966 -0.041225236
0003d0 9c 76 8a 3c 0e d1 bc 3c 4d 15 e7 3d 79 49 0b 3a
       0.01690226 0.023048904 0.1128336 0.00053133775
0003e0 37 75 a5 3b ca 9d 2e 3c 74 0c 8f bd b5 13 ac 3d
       0.0050493735 0.010657737 -0.06984797 0.08402196
0003f0 da 38 b4 3d 30 2f fb 3d 59 6f dc 3d dc ed bc bd
       0.08799906 0.1226486 0.107634254 -0.092250556

hidden2.bias f4 [100]
000000 22 cb d3 3c 71 b4 05 3d 76 e8 f4 bc 1c 7f ed bc
       0.025853697 0.032642785 -0.029896002 -0.028991275
000010 18 59 e4 3d f5 1c c6 bd d7 20 ff 3c 0b eb da 3c
       0.11149806 -0.09673492 0.031143589 0.026723405
000020 b5 42 a3 bd 4f 4f a9 bb 70 44 53 bd eb 3c a5 bd
       -0.07971708 -0.005166925 -0.05157894 -0.0806826
000030 b6 4a 9b bc 84 30 97 bd 2e 56 8d 3d 3a f2 7f bd
       -0.018956523 -0.073823005 0.06901203 -0.062486865
000040 0b 48 e5 3d ab dc a2 3d de b6 7e bb 35 e0 91 bc
       0.11195382 0.07952245 -0.0038866322 -0.017807106
000050 8c 0f 4f 3c a7 83 aa bd 81 2a 7f 3d a8 ee a5 3d
       0.012637984 -0.08325892 0.062296394 0.08102161
000060 d5 43 a2 bd 5f 5c 15 3d dd ea 6f bc f1 02 68 bd
       -0.07923094 0.036465045 -0.014643398 -0.05664343
000070 7f 13 87 3d a2 69 2d bd 98 cb e5 3c 9e 81 2a 3d
       0.065955155 -0.042337067 0.028051183 0.04162752
000080 d7 72 b8 bd f4 8a c8 3c 98 c7 ad bd eb 14 bf 3a
       -0.09006279 0.02448032 -0.08485335 0.0014578378
000090 dd a5 33 bd c2 93 97 bd 85 2c e6 bb 2e c0 f5 bc
       -0.04385935 -0.074012294 -0.00702435 -0.029998865
0000a0 1f 5f bb bd 6a ee 13 3d c1 03 ca bb e2 c5 08 39
       -0.09149002 0.03611604 -0.0061649983 0.00013043688
0000b0 b7 84 a9 3d 4f 74 b6 3d 90 8e b3 3d 12 f0 bd bb
       0.082772665 0.08908903 0.08767426 -0.005796441
0000c0 3a c0 f3 bc dd a3 4c 3d c8 c4 d3 3d b8 59 27 bd
       -0.029754747 0.04996096 0.103402674 -0.040857047
0000d0 84 23 75 3c a1 e6 73 bd 8d d2 9e 3d 3e 3a 32 3d
       0.014962081 -0.059546117 0.07755003 0.043512575
0000e0 23 74 46 ba 53 27 28 bb 30 f9 42 38 d1 f8 94 3b
       -0.00075704063 -0.0025658205 4.648528e-05 0.004546263
0000f0 58 44 b4 bd 13 0b fc bc 74 1f a9 3d ea 60 b1 3c
       -0.08802098 -0.030767 0.08257952 0.021652658
000100 d1 96 84 3d 13 9f 95 3d c5 84 aa 3d 7b a2 6a bc
       0.064740784 0.073057316 0.08326105 -0.014320965
000110 36 b2 03 3d ea 63 b8 3a 50 56 ac 3d e1 12 7a bd
       0.032152377 0.0014067863 0.084149 -0.06105316
000120 65 57 00 3d 89 b1 38 bd 3d 9f b7 bd 10 c1 a9 3d
       0.031333346 -0.045091186 -0.08965919 0.08288777
000130 83 68 b9 3d 72 1a 47 bc b9 bd bb bd 66 a8 83 bd
       0.09053137 -0.012152301 -0.09167046 -0.06428604
000140 d8 4d c5 3d c8 f4 80 bd 1a 92 61 bd ae 74 c1 3b
       0.09633988 -0.06296688 -0.055070974 0.005903802
000150 57 7f bf 3d ee d7 96 bd 92 91 de bc 89 6c bf bc
       0.0935046 -0.07365404 -0.027169023 -0.023367183
000160 fe 4f b7 3d 64 47 ed 3c 4f dc e8 3c e4 5b 59 bd
       0.08950804 0.028964706 0.028425364 -0.05306615
000170 de 8f c4 3c 8d 9e 95 3a 2a 7f c7 bd 79 c7 b4 3d
       0.023994382 0.001141505 -0.097410515 0.08827109
000180 91 1b da 3b f4 0d 8c bd bf 06 11 bd 9f a3 55 3d
       0.006656118 -0.06838599 -0.035406824 0.052157994

hidden3.weight f4 [100, 100]
000000 fd 81 54 bc d3 ee db bd a0 bb 0b bd 6b 3d a6 bd
       -0.012970445 -0.107389115 -0.03411448 -0.08117183
000010 e1 4d 9f bd 45 93 b9 bd 3f a6 63 bd 7f 75 09 3d
       -0.07778526 -0.090612926 -0.055578467 0.03355932
000020 21 df 9a 3c 07 ed 19 3d 88 dd 01 3c 41 6b 2c bd
       0.018905224 0.037579563 0.007926352 -0.042094473
000030 08 a1 90 bc 06 a1 88 3b d4 28 59 bd 54 1d bd 3d
       -0.01765491 0.004169586 -0.053017452 0.092341095
000040 65 bb da bd 6c bf a5 bd 05 08 a9 3d 3a 8a 9b bd
       -0.10680274 -0.080931515 0.08253483 -0.07594724
000050 f6 69 30 bb 00 10 9d bb 9a a1 86 bd d6 81 f0 3c
       -0.0026918626 -0.004793167 -0.06573792 0.029358786
000060 fd 70 f8 3d 71 f7 0a 3d c6 1c 86 3d e0 9c 85 bd
       0.12130926 0.033927385 0.06548457 -0.06524062
000070 30 8e 28 bb 13 46 66 bd e6 b4 8e bd bd 13 a2 3d
       -0.0025719516 -0.05621917 -0.069680974 0.07913921
000080 13 db 18 3d 87 b4 91 3d 58 ea a0 bd f4 f5 23 3d
       0.0373183 0.07114511 -0.078571975 0.04002948
000090 0b b9 b0 3d 32 e9 7a 3c a2 f2 dd bd 11 c7 b1 3d
       0.08629044 0.015314387 -0.10837294 0.08680547
0000a0 88 1a 58 3c f3 cf c0 3d e7 c1 93 3d 0d 23 9e bd
       0.013189919 0.09414663 0.07214718 -0.07721529
0000b0 ea f6 e8 bd 3a a8 a0 bd d7 cf a5 3d a6 15 a1 bd
       -0.1137522 -0.07844587 0.08096283 -0.07865457
0000c0 c5 66 68 3d 3c 09 4e bd 5c d2 c9 3d 25 5a 89 3d
       0.056738634 -0.050301775 0.09854576 0.06706647
0000d0 9b ab ba 3d 60 8e 5c 3d b8 2e 7d bd d2 96 c6 3d
       0.091147624 0.053846717 -0.061812133 0.096967354
0000e0 7b 6d ab bc 36 bc 09 3e 10 1e 19 3d e8 19 39 3a
       -0.020926228 0.13450703 0.037382185 0.000706105
0000f0 71 e7 a2 3d c4 17 ca bc b2 7f 91 3d c3 8e b1 bc
       0.079543 -0.024669535 0.07104434 -0.02167452
000100 f0 d3 a9 ba 77 76 d7 3d 6f 97 e7 3c d4 66 12 3d
       -0.0012956839 0.10520642 0.028270451 0.035742596
000110 da ae 15 3d 56 59 b7 bd 75 52 88 3d 24 6a 3a bc
       0.036543705 -0.08952586 0.066563524 -0.011377845
000120 e6 6e 12 3a 3f 0f 50 bd 34 25 09 3c 6f 60 2d 3b
       0.0005585983 -0.05079579 0.008370686 0.0026455184
000130 12 2e 8d bd 16 1a e2 3d 65 a9 bd 3c 1b cc c5 bd
       -0.06893553 0.11040132 0.023152063 -0.09658071
000140 d7 15 59 bd b9 83 6b 3d 0d fe ce bd f3 3f ba bd
       -0.052999344 0.057498667 -0.1010705 -0.090942286
000150 56 43 1a 3d 0c 9c f7 3c 56 7d ac 3c 3c 31 81 3d
       0.037661873 0.030225776 0.021055859 0.06308219
000160 bd 06 8b bd 11 a4 6a bd 37 c7 5b 3c d5 ca cc 3d
       -0.067883946 -0.057285372 0.013414196 0.09999625
000170 8e 41 77 3d a2 5f 68 3b ee 90 c1 3d 25 a7 92 bc
       0.060365252 0.0035457392 0.09451471 -0.017901966
000180 04 2f 1e bd aa 18 8a 3d df 46 9e bc 2f 1b 9f bd
       -0.038619056 0.067429855 -0.019320903 -0.07768857
000190 69 36 71 3d 9a 26 10 bd ba 41 cb 3d 91 f9 ba bd
       0.05888978 -0.035193063 0.09924646 -0.09129632
0001a0 96 42 6b 3d f0 11 96 3d 65 9f a8 3d 57 07 71 bc
       0.05743655 0.0732764 0.08233527 -0.014711223
0001b0 57 a3 8f bd 84 15 0b 3c 39 61 bc 3d 22 9d 50 3c
       -0.070135765 0.008489016 0.09198231 0.012732776
0001c0 21 47 f7 3b da cd 86 bd 64 62 1b 3d 55 61 e3 bd
       0.007546321 -0.06582232 0.03793563 -0.11102549
0001d0 a4 69 94 bc c4 10 1c 3d 76 15 4a bd e2 56 bb 3b
       -0.01811678 0.038101926 -0.049336873 0.0057171443
0001e0 20 2b 0e bc e9 91 f9 bc dd db ea bc 44 7c d7 bc
       -0.008677274 -0.030465083 -0.028669292 -0.026304372
0001f0 3a 3c b3 bb 66 e9 85 bc bb 94 b1 3d 81 ad a9 bd
       -0.005469826 -0.016346645 0.08670946 -0.08285046
000200 35 ec 09 bd 78 5c 81 bd 5b 88 bb 3d a9 8b 1e 3c
       -0.03367253 -0.06316465 0.09156867 0.009676852
000210 04 bb e2 bc 49 d3 d5 3c ae 66 fd 3c b6 4d 28 3d
       -0.027677067 0.026101725 0.03093275 0.041089736
000220 42 78 ab bd b3 c7 1b 3d 1f 8e 8d 3d 6b 35 8b bd
       -0.08372547 0.038032245 0.06911873 -0.06797298
000230 37 52 e1 3d 7f f3 af 3c 61 99 c0 bd 7a 74 60 3c
       0.11002009 0.021478413 -0.09404255 0.013699645
000240 43 64 6b 3d 64 53 93 3d cd 6b a9 3d c4 53 04 3c
       0.057468664 0.0719364 0.082725145 0.008076612
000250 86 ae c7 bd 66 89 09 bd aa 0f 6e bd 49 bb b8 3d
       -0.097500846 -0.0335783 -0.058120407 0.09020097
000260 77 ff 49 3d 70 da de 3d c6 b6 c1 bb 49 bd 88 3d
       0.049315896 0.108815074 -0.005911681 0.06676728
000270 93 29 74 bd d7 74 f8 3c 97 2b 02 3d 6c f0 29 bd
       -0.05960996 0.030329151 0.03177985 -0.04148905
000280 49 fb 05 3d af a8 be 3d 9b e7 30 bd 12 36 41 bd
       0.032710347 0.093095176 -0.043189626 -0.047170706
000290 19 4f 75 bd 4c d0 b9 3d ec 76 02 bd 45 a4 4b bd
       -0.059889887 0.090729326 -0.031851694 -0.049717207
0002a0 f1 d5 97 3d a0 e2 d4 3c 90 64 8d 3c ae be 93 bd
       0.07413853 0.02598697 0.017259866 -0.07214104
0002b0 09 7f aa bd 52 1d bb bd 27 ee 98 bd 4f 8b b4 3d
       -0.08325011 -0.09136452 -0.07467299 0.088156335
0002c0 50 41 8e 3d 52 60 9a 3d 4d ed 6d bc 90 57 45 3a
       0.06946051 0.07537903 -0.014521909 0.00075280014
0002d0 fe 9b ba 3d c6 89 9e bd 00 92 a6 bd 36 ec 53 bd
       0.091117844 -0.07741122 -0.08133316 -0.05173894
0002e0 e1 0d 87 3d a3 33 3c 3d 63 3c cd ba 7d b1 03 bd
       0.06594444 0.045947682 -0.0015658255 -0.032151688
0002f0 18 15 6f 3c cc 5b 66 bd fa e5 0a 3d 66 cb 15 3d
       0.0145924315 -0.056239888 0.03391073 0.03657093
000300 10 d3 58 3c c5 ab 8c bd d2 db 8a 3d 36 61 e2 bc
       0.013233915 -0.068687 0.06780209 -0.027634244
000310 e6 ba 9e bd 53 f1 cd 3c ec 3f 98 bd 08 27 b7 3d
       -0.07750492 0.025139486 -0.07434067 0.089429915
000320 c0 ea d9 bc 89 c4 fc 3c 1d 44 9c 3d 7d e6 b7 bd
       -0.026601195 0.030855434 0.07630179 -0.08979509
000330 11 77 02 3e 9b 5e 77 bc b6 97 12 3d 6d 33 af 3d
       0.12740733 -0.015098239 0.035789214 0.085547306
000340 0a 3b a9 3c 0b 25 23 3c 70 84 a2 3c 02 00 20 bd
       0.020658035 0.009957562 0.019838542 -0.039062507
000350 6d 9e e1 bc a7 54 d7 bb f7 42 0b 3e 7a a6 b3 3c
       -0.027541364 -0.0065713706 0.13599764 0.021929968
000360 04 ad 0b 3e 77 76 49 bd fe 9e 37 3e 88 7e 5d bd
       0.13640219 -0.049185243 0.17931744 -0.054075748
000370 26 7a 1d bd 16 28 94 bd a8 8c c9 3d 1d 88 d5 3c
       -0.038446568 -0.07234208 0.09841281 0.02606588
000380 b4 92 b0 bd b6 68 b8 bd 0f 0f 63 3d 9b 71 8d 3b
       -0.086217314 -0.09004347 0.055434283 0.0043165213
000390 3b 7f e9 3c 24 f1 35 3d 99 f4 60 bd c4 de 50 3c
       0.028503051 0.044419423 -0.054920767 0.012748424
0003a0 85 cc ae 3d f2 42 56 bd 58 05 76 bd 25 94 77 bd
       0.08535103 -0.052309938 -0.06006369 -0.060444016
0003b0 e4 fe 8f bd ad b2 f5 3b 83 d3 b0 bd 5b ca 73 3d
       -0.070310384 0.0074981065 -0.08634093 0.059519153
0003c0 d6 72 87 ba 09 80 85 bd 0d 5d 8e 3d 5d ef cb bd
       -0.0010333906 -0.065185614 0.06951342 -0.09957764
0003d0 17 b7 29 3c 47 a1 82 3d e2 56 7d 3d 39 6c 67 bd
       0.010358593 0.063784175 0.061850436 -0.056499694
0003e0 2e f0 02 bd b1 42 b4 bd c7 7a d7 bc e8 24 38 bd
       -0.031967334 -0.08801783 -0.026303662 -0.04495707
0003f0 cb e9 6f 3c bf da 39 bd df d2 86 3d ed d9 be bc
       0.014643143 -0.04537463 0.06583189 -0.023297274

hidden3.bias f4 [100]
000000 4c d5 ee bc 21 a0 30 bc 6a ed dc 3d 15 e6 03 3e
       -0.029154442 -0.010780365 0.10787471 0.12880738
000010 ac 7d 8c bb 2b 3c b9 3d f6 16 ec bc 94 70 ab 3d
       -0.004287442 0.09044679 -0.028819542 0.08371082
000020 2f ca 05 bd 9b 1d 17 3d ae 95 c7 3d 1e 42 a2 bc
       -0.03266352 0.03689347 0.09745346 -0.019806918
000030 9d bc 89 3d 15 f8 9c 3d ae 2e 6e bd dd 9c 5d 3d
       0.06725428 0.076645054 -0.058149986 0.054104675
000040 f3 c6 36 bd 19 d8 b7 bd e5 c6 01 bb cf ba 8f 3d
       -0.044623327 -0.08976764 -0.0019802388 0.07018053
000050 df a9 82 3d 4c b8 3d 3d ca 5f a6 bd 00 c0 b0 bd
       0.063800566 0.046318337 -0.08123739 -0.08630371
000060 f7 97 9d bd e3 ce c7 bd df 14 ac bd ac 25 47 bd
       -0.076950006 -0.097562574 -0.08402418 -0.04861991
000070 06 70 83 bd 00 4c 63 3d ca 5f 2b 3d 8a 56 e6 3b
       -0.06417851 0.0554924 0.0418394 0.007029359
000080 a8 6d 5d 3d b8 0c 13 3d 59 33 e5 bc f4 2c 2e bd
       0.054059654 0.0359008 -0.027978586 -0.04252334
000090 23 c9 9f 3d ad fe be bb 57 d0 36 3d cc 06 93 3d
       0.07802036 -0.0058286996 0.044632282 0.07179031
0000a0 03 e3 91 bd aa 29 08 bd 3c 68 5a 3c 56 6e b7 bd
       -0.07123377 -0.03324286 0.0133305155 -0.08956592
0000b0 4f 7f f1 3d 68 8c 43 3d b6 95 6e 3d eb bf a9 3d
       0.1179186 0.047741324 0.058248244 0.082885586
0000c0 d0 ff 9f 3d f2 72 2a bd 96 ab 2e bd 86 33 57 3d
       0.07812464 -0.041613527 -0.042644106 0.05253937
0000d0 77 c5 ad bd c2 74 a0 3d 68 d4 dc 3d 98 49 53 bd
       -0.08484929 0.0783477 0.10782701 -0.051583856
0000e0 c2 b2 ac bd 6f 71 80 3d b0 a1 4c bd 26 f4 bd bc
       -0.08432533 0.06271636 -0.049958885 -0.023187708
0000f0 04 d9 a7 bd de 5f 97 bd 26 09 7a bd 71 b0 ed 3c
       -0.08195689 -0.07391332 -0.06104388 0.029014798
000100 20 40 be bd 64 f4 8b bd ba fb ef 3d 24 fe 02 3e
       -0.092895746 -0.06833723 0.11717935 0.1279226
000110 64 de 16 bc 37 06 92 3c 04 8d f2 bc f9 41 2d bd
       -0.0092082955 0.01782523 -0.029608257 -0.042299245
000120 93 8d 60 bb 85 4c 72 bd a3 6a 10 bd 95 30 3d 3d
       -0.0034264072 -0.059155006 -0.035257947 0.04618891
000130 b3 0f 90 3d 5b ee 4c 3d 51 6b d1 bd 57 63 cc bc
       0.070342444 0.050032 -0.10225547 -0.024949713
000140 2a 18 07 3e 01 48 fb bb 07 bd 87 bd 10 8c 8d bd
       0.13192812 -0.0076684956 -0.06627851 -0.069114804
000150 39 2b bb bc ca 51 9f 3d 37 8c 67 bc 81 eb ed bc
       -0.022847759 0.07779272 -0.014132551 -0.029042961
000160 c7 20 3d bd d2 0a a4 bc f1 ae 0b 3c 5c b0 66 bd
       -0.046173837 -0.02002469 0.008525596 -0.056320533
000170 25 cf 25 bd 81 13 af bd 07 26 c0 bc 33 81 77 bd
       -0.04048075 -0.08548642 -0.023455633 -0.06042595
000180 47 39 12 bd 09 10 e2 bc 71 a1 eb 3d fc c3 a7 bd
       -0.035699155 -0.027595537 0.11505402 -0.08191678

classification_layer.weight f4 [10, 100]
000000 aa 9e ff bd 9c 12 14 3e f5 38 46 be 21 f0 0e be
       -0.12481435 0.14460224 -0.19357665 -0.1395879
000010 28 48 23 3e 41 e1 bd bd 3c 34 f5 3c 85 9e c2 bd
       0.15945494 -0.092714794 0.029932134 -0.095028915
000020 17 10 32 3e f0 5b 7b 3d 3f 85 b9 bd f0 27 a8 bd
       0.1738895 0.061366975 -0.09058618 -0.082107425
000030 ea 4b e4 bd 61 0e ac 3d 2f 9c 05 3e 39 d9 17 3d
       -0.11147292 0.0840118 0.1304786 0.037072394
000040 27 2d 19 3e 1c 66 01 bd 9b 07 bc 3d 92 97 a6 bd
       0.1495863 -0.03159152 0.09181138 -0.081343785
000050 a9 51 1a 3e 06 f3 c7 bd 34 79 4a 3e 04 41 01 3e
       0.15070213 -0.0976315 0.19772798 0.12622458
000060 94 4d 63 3c f1 85 6d bd d9 03 ae 3d 19 ad 01 bd
       0.013873477 -0.057989065 0.08496828 -0.03165922
000070 28 51 f8 bd 74 89 bd 3d 3d cc b0 3d b0 78 f9 bc
       -0.12124854 0.09254733 0.08632705 -0.030453056
000080 65 57 04 3e c4 7d 39 be 30 80 bf bd 74 f3 d4 bc
       0.12923963 -0.18114382 -0.09350622 -0.025994994
000090 d7 1c c2 bc af e4 1e bd 33 ae a4 3c 8d a9 e2 3b
       -0.023695393 -0.03879231 0.020102596 0.0069171847
0000a0 76 1d 28 be 5d 2a c7 bd 4e 36 f6 3d a3 33 f6 3b
       -0.16417488 -0.09724877 0.120220765 0.00751348
0000b0 1b 3d 02 be 30 63 44 be d6 48 73 bc a2 e0 00 be
       -0.12718622 -0.19178462 -0.014848908 -0.1258569
0000c0 14 2d a4 bd 3e 2a 9f 3d 13 a2 3b be 22 9e 13 be
       -0.080164105 0.07771729 -0.18323545 -0.14415792
0000d0 b6 da ba bd 35 d1 2a be c5 0e c6 3d 7f b5 09 3b
       -0.09123747 -0.16681369 0.09670786 0.002101272
0000e0 d6 3a 69 3d 30 d2 bb bd e4 56 1f 3e 53 5e 90 bd
       0.056940876 -0.091709495 0.1556049 -0.07049241
0000f0 14 21 2f bd 41 7f 32 3e 2c a9 65 bc 77 e7 25 3c
       -0.042756155 0.17431356 -0.0140173845 0.010125986
000100 c0 a6 06 3b e2 8b 55 3d be f3 95 bd 63 ea 7d bd
       0.0020546168 0.052135356 -0.07321881 -0.061991107
000110 4e c7 d1 3d 9b ba e0 bd d1 46 b4 bd 04 79 3a bc
       0.102430925 -0.10973092 -0.0880257 -0.011381391
000120 96 7c f2 3d 77 9e b2 3d 14 f3 c9 3d f2 0f bb 3d
       0.11840169 0.08721631 0.098608166 0.09133901
000130 b1 13 c4 3d c1 8d 06 be fc 26 80 3b ed d6 6c bd
       0.09574068 -0.13140012 0.0039108973 -0.057822157
000140 84 e2 22 be db a5 b8 3d 44 ef 45 3d b1 5b 87 bc
       -0.15906721 0.090160094 0.048323885 -0.016523214
000150 3c 49 1a bd d3 44 03 bc 83 0f 0c 3d ba 67 e3 bd
       -0.037667498 -0.008012014 0.03419448 -0.11103769
000160 89 6f 3f bc 7a a4 84 bd 49 4f 98 bd 46 30 6c 3d
       -0.011684307 -0.06476684 -0.074369974 0.057663225
000170 f4 c0 47 3e ac e7 9e 3d fe 43 9a 3d 4c 13 f2 3d
       0.195072 0.07759032 0.075325 0.11820087
000180 cd 58 77 3d 44 d5 22 3e 30 6e 0b 3e 3c 44 88 bd
       0.06038742 0.15901667 0.13616252 -0.0665364
000190 e4 b8 03 3d 5d d3 04 bd 63 80 72 3e eb 64 f7 bd
       0.032158747 -0.032428134 0.23681788 -0.120797954
0001a0 5f 4b 9c 3c 71 96 ee 3d a6 db d8 bd c0 76 0e 3e
       0.019078908 0.11649788 -0.105887696 0.13912487
0001b0 84 f2 33 bd 08 de 28 bd 4c 79 95 3e 6a 9f a2 bc
       -0.043932453 -0.04122737 0.29194105 -0.019851405
0001c0 24 c3 ae 3d f6 f7 79 bd 61 c6 3a bc 1a e3 7b 3e
       0.08533314 -0.06102749 -0.011399836 0.24598351
0001d0 a8 6d 8d bb 7c 18 a0 bd 8c de 27 bd 21 21 6c 3d
       -0.0043160506 -0.0781717 -0.04098372 0.05764878
0001e0 fa be e7 bd f2 95 49 3d c6 82 34 be 0b af 23 bd
       -0.11315723 0.049215265 -0.17628011 -0.039961856
0001f0 7d 37 5c 3d 8d be 11 bd b6 fc 10 3e 15 9c 80 bd
       0.053763855 -0.035582114 0.14158902 -0.0627977
000200 e9 2e fc bd bc b2 c0 bd d9 ce de bd 2e a4 ab 3c
       -0.12313635 -0.09409091 -0.10879297 0.02095231
000210 51 5b 41 be b1 8a 66 bc eb ac fe 3d 09 8a b6 3d
       -0.1888249 -0.014071153 0.12435325 0.08913047
000220 9f 5c f7 3b c8 06 a1 3c 8e 3c 36 3e 5d 45 ac bd
       0.007548883 0.019656554 0.17796537 -0.084116675
000230 19 ed 36 3d 1b f9 85 3d d6 6b 77 be 67 e1 a1 bd
       0.044659708 0.06541654 -0.2416223 -0.0790432
000240 bb cb 8e 3e be 7f 0e 3e 77 85 c3 3d 97 18 25 3d
       0.2788981 0.13915917 0.09546941 0.040306654
000250 d7 a9 c9 bd 63 f2 65 bd 80 62 ad bc 63 6a 0e 3e
       -0.098468475 -0.05613936 -0.021165133 0.13907771
000260 29 04 f9 3c 1b 0a 0b bc 6c 9e bb 39 60 ff 7f 3b
       0.030397492 -0.008486296 0.00035785453 0.0039062127
000270 02 ea 4a 3c 3d ba c6 3d 89 b4 7a 3c a9 b2 b3 3d
       0.012384893 0.09703491 0.015301832 0.08774311
000280 da 15 0f bd af 05 1a be e9 97 b1 bd f1 e0 79 3d
       -0.03493295 -0.1504123 -0.08671553 0.061005536
000290 c2 2d ad bd f1 2d 13 be 44 94 59 be 9f e1 04 be
       -0.08455993 -0.14372994 -0.21247965 -0.12976693
0002a0 8c 92 9d 3d b2 c9 23 3d 31 35 32 3e 7a 21 d1 bd
       0.07693967 0.039987274 0.17403103 -0.10211463
0002b0 83 61 f1 3c fd 4f 07 be a1 fc 99 bd 2d 47 1a 3d
       0.029465443 -0.13214107 -0.07518888 0.037665535
0002c0 9c 93 22 bc 14 31 c3 bd 2e 77 39 bc a3 f2 19 3c
       -0.009922888 -0.09530845 -0.011319919 0.009396228
0002d0 41 07 a8 bd bc 9a 40 be a0 26 8d 3c eb d4 93 3c
       -0.082045086 -0.18809026 0.017230332 0.018045863
0002e0 37 dc 3d bd 5d fd 0c 3e d4 b4 c5 3d b0 b0 aa bd
       -0.04635259 0.13768525 0.09653631 -0.08334482
0002f0 d7 28 4b bd 2c 86 31 bd 8e 8d 35 be 32 91 4d bd
       -0.049599495 -0.043340847 -0.1772978 -0.050187297
000300 f2 55 ed bd c7 37 96 bd c6 b6 d7 3b 56 ef c1 3c
       -0.115886584 -0.073348574 0.0065830676 0.023673695
000310 3b fc 76 bc 68 79 0c 3d cd 11 ff bd 4f 90 dc bc
       -0.015074785 0.03429547 -0.12454567 -0.02692428
000320 2c e2 8b 3d 4b 19 96 3d d6 43 2d be 77 48 0b be
       0.06830248 0.07329043 -0.16920409 -0.13601862
000330 23 56 85 3d 38 eb 50 3d 0e d5 1f 3d e9 08 bc 3d
       0.0651057 0.051005572 0.039021544 0.09181387
000340 da ad 4a 3d 7a 5d 2a be 46 9d 85 3d f6 5f 33 bd
       0.049482204 -0.16637221 0.06524138 -0.043792687
000350 49 b5 29 3d 70 dc 0f 3d d3 7b a7 bc c0 a9 53 be
       0.041432653 0.035122335 -0.020444786 -0.20670223
000360 e7 3a fa 3d 91 6f 0a 3c 27 9c b5 3d ee 8d 96 3d
       0.12218266 0.008449451 0.08867674 0.0735129
000370 6f ee bd bd 5c 78 62 bd 19 b7 1e bd d7 4a 57 be
       -0.09273993 -0.055290565 -0.038748834 -0.21024643
000380 50 59 d5 3d ef 83 a8 bc 7b 92 06 bd 94 b1 81 3b
       0.10417426 -0.020570723 -0.03285454 0.0039579365
000390 81 b1 52 3e e8 99 6b 3d 52 83 88 3c 2a f8 7a 3b
       0.20575525 0.057519823 0.01666418 0.003829489
0003a0 27 a1 10 bc 22 8b 6c 3e 48 00 86 bd ec cb d4 bb
       -0.008827484 0.2309995 -0.065430224 -0.006494036
0003b0 69 5e d4 bc 6d 25 0f bd 40 be e6 bd 8d af 92 bb
       -0.025923925 -0.0349478 -0.11266756 -0.0044764937
0003c0 00 96 fc 3d 67 ce 86 bd cc 0d 7d 3d fd 01 1a 3e
       0.12333298 -0.06582337 0.061780736 0.15039821
0003d0 0e f1 f6 bc 16 af db 3b 7b c9 aa 3d 26 7f b0 3d
       -0.03014424 0.0067042215 0.083392106 0.08618002
0003e0 ee 6f a8 bd 8d 3a 3c 3e e0 b3 12 bd 78 ab 31 3d
       -0.08224474 0.1838171 -0.035816073 0.043376416
0003f0 6a 88 14 be 9d 69 73 be e2 22 95 bc 8b 6e a3 bd
       -0.14505163 -0.23770757 -0.01820511 -0.07980069

classification_layer.bias f4 [10]
000000 84 c9 07 be 85 42 13 3e 8a bf 25 bd b6 96 ad bc
       -0.13260466 0.14380844 -0.04046587 -0.021190029
000010 5f 8d 79 3c ee 24 9a 3d 4d b2 10 bc 7b 6c a1 3d
       0.015231459 0.07526575 -0.008831573 0.07882019
000020 28 ec 11 be f0 60 e4 3c
       -0.14250243 0.027878255

hidden1_bn.weight f4 [100]
000000 ea a1 9e 3e ad 35 27 3f c0 3e 7e 3c 6f 89 3e 3f
       0.30982906 0.6531628 0.01551789 0.7442846
000010 30 2d 54 3f d7 22 47 3f 3a ff fb 3e 66 9f 62 3f
       0.8288145 0.77787536 0.4921816 0.8852447
000020 77 d6 1b 3f ee 47 45 3f 9e 1a 9d 3e 59 a3 1b 3f
       0.6087412 0.7706288 0.3068437 0.60796124
000030 c0 7d 18 3c 4c 0e 45 3e 7b 7b 46 3f 5a 35 ba 3e
       0.009307325 0.19243735 0.77532166 0.3636883
000040 34 cd 3b 3e 5a 29 72 3f 00 ee 80 3c 3c 02 35 3e
       0.18339998 0.9459435 0.015738487 0.17676634
000050 e6 68 da 3e 6c ae d2 3e 4c 7b 2a 3e e8 b4 da 3e
       0.42658156 0.41148698 0.16648597 0.42716146
000060 f3 59 72 3f 15 fc 5a 3f 25 9f 74 3f 00 eb 1b 3b
       0.946685 0.85540897 0.95555335 0.0023791194
000070 dc d4 32 3f 50 a9 5a 3f a8 5b 6e 3e ba 08 56 3f
       0.6985605 0.854146 0.23277152 0.83607066
000080 d0 a4 85 3d 63 c6 08 3f 8e e5 de 3e e3 a5 19 3f
       0.06525576 0.53427714 0.4353451 0.6001875
000090 34 33 00 3f e8 ff 77 3e 4b 41 5a 3f 0b 3b 3e 3f
       0.5007813 0.24218714 0.8525588 0.7430884
0000a0 29 aa 0d 3f 82 c2 4c 3f 10 62 35 3d 00 84 f6 3b
       0.5533777 0.79984295 0.044282973 0.00752306
0000b0 ec 99 6d 3e a8 78 a9 3e 90 13 0a 3e 5c 9d 5e 3f
       0.23203248 0.33099866 0.13484025 0.8695886
0000c0 d0 4f 31 3d ca 05 69 3f cc c8 a8 3e 34 53 fa 3e
       0.043289006 0.9102446 0.32965696 0.48891604
0000d0 36 4c 1d 3f 2e 1f 39 3f 26 b6 7b 3f 4d 0d 50 3f
       0.61444414 0.723132 0.9832481 0.81270295
0000e0 75 84 59 3f c0 79 6f 3d 12 5e 44 3f 68 c3 9a 3e
       0.8496774 0.05846572 0.7670604 0.30227208
0000f0 80 25 8d 3d d8 97 93 3d dc dc 33 3e 16 9a 62 3f
       0.06891918 0.07206696 0.1756472 0.88516366
000100 e4 6a 8d 3e b6 53 90 3e 32 18 b5 3e 7a bd 81 3e
       0.27620614 0.28188866 0.35370022 0.25339872
000110 10 4f 16 3e b1 c5 48 3f 6d 74 60 3f 2a 76 37 3f
       0.14678597 0.78426653 0.8767765 0.7166468
000120 60 9f 8b 3c b0 b3 9d 3d 40 a8 61 3e 14 88 18 3e
       0.01704377 0.07700288 0.22036839 0.1489566
000130 e0 3e e3 3e 14 d0 13 3e 4d 79 03 3f bd 8c 16 3f
       0.44383907 0.14434844 0.51356965 0.588085
000140 3a 7a 48 3f ea 90 00 3f 6d 59 35 3f b3 51 08 3f
       0.783115 0.5022112 0.7083958 0.53249663
000150 6c c4 57 3e 67 a8 11 3f 3f 6b 0a 3f 15 32 3b 3f
       0.21071023 0.56897587 0.54069895 0.73123294
000160 a6 39 a3 3e 23 25 37 3f ea fb 80 3e d5 fb 3a 3f
       0.3187992 0.7154104 0.25192195 0.73040515
000170 c8 e5 46 3e 00 66 77 3d 29 cf 3c 3f 14 28 6d 3e
       0.19423592 0.06040001 0.737536 0.2315982
000180 5c 8a 1d 3f 69 13 09 3f c8 3a 14 3e 2c 76 1b 3e
       0.61539245 0.5354524 0.14475548 0.15181798

hidden1_bn.bias f4 [100]
000000 00 00 00 00 00 00 00 00 00 00 00 00 00 00 00 00
       0.0 0.0 0.0 0.0
000010 00 00 00 00 00 00 00 00 00 00 00 00 00 00 00 00
       0.0 0.0 0.0 0.0
000020 00 00 00 00 00 00 00 00 00 00 00 00 00 00 00 00
       0.0 0.0 0.0 0.0
000030 00 00 00 00 00 00 00 00 00 00 00 00 00 00 00 00
       0.0 0.0 0.0 0.0
000040 00 00 00 00 00 00 00 00 00 00 00 00 00 00 00 00
       0.0 0.0 0.0 0.0
000050 00 00 00 00 00 00 00 00 00 00 00 00 00 00 00 00
       0.0 0.0 0.0 0.0
000060 00 00 00 00 00 00 00 00 00 00 00 00 00 00 00 00
       0.0 0.0 0.0 0.0
000070 00 00 00 00 00 00 00 00 00 00 00 00 00 00 00 00
       0.0 0.0 0.0 0.0
000080 00 00 00 00 00 00 00 00 00 00 00 00 00 00 00 00
       0.0 0.0 0.0 0.0
000090 00 00 00 00 00 00 00 00 00 00 00 00 00 00 00 00
       0.0 0.0 0.0 0.0
0000a0 00 00 00 00 00 00 00 00 00 00 00 00 00 00 00 00
       0.0 0.0 0.0 0.0
0000b0 00 00 00 00 00 00 00 00 00 00 00 00 00 00 00 00
       0.0 0.0 0.0 0.0
0000c0 00 00 00 00 00 00 00 00 00 00 00 00 00 00 00 00
       0.0 0.0 0.0 0.0
0000d0 00 00 00 00 00 00 00 00 00 00 00 00 00 00 00 00
       0.0 0.0 0.0 0.0
0000e0 00 00 00 00 00 00 00 00 00 00 00 00 00 00 00 00
       0.0 0.0 0.0 0.0
0000f0 00 00 00 00 00 00 00 00 00 00 00 00 00 00 00 00
       0.0 0.0 0.0 0.0
000100 00 00 00 00 00 00 00 00 00 00 00 00 00 00 00 00
       0.0 0.0 0.0 0.0
000110 00 00 00 00 00 00 00 00 00 00 00 00 00 00 00 00
       0.0 0.0 0.0 0.0
000120 00 00 00 00 00 00 00 00 00 00 00 00 00 00 00 00
       0.0 0.0 0.0 0.0
000130 00 00 00 00 00 00 00 00 00 00 00 00 00 00 00 00
       0.0 0.0 0.0 0.0
000140 00 00 00 00 00 00 00 00 00 00 00 00 00 00 00 00
       0.0 0.0 0.0 0.0
000150 00 00 00 00 00 00 00 00 00 00 00 00 00 00 00 00
       0.0 0.0 0.0 0.0
000160 00 00 00 00 00 00 00 00 00 00 00 00 00 00 00 00
       0.0 0.0 0.0 0.0
000170 00 00 00 00 00 00 00 00 00 00 00 00 00 00 00 00
       0.0 0.0 0.0 0.0
000180 00 00 00 00 00 00 00 00 00 00 00 00 00 00 00 00
       0.0 0.0 0.0 0.0

hidden1_bn.running_mean f4 [100]
000000 00 00 00 00 00 00 00 00 00 00 00 00 00 00 00 00
       0.0 0.0 0.0 0.0
000010 00 00 00 00 00 00 00 00 00 00 00 00 00 00 00 00
       0.0 0.0 0.0 0.0
000020 00 00 00 00 00 00 00 00 00 00 00 00 00 00 00 00
       0.0 0.0 0.0 0.0
000030 00 00 00 00 00 00 00 00 00 00 00 00 00 00 00 00
       0.0 0.0 0.0 0.0
000040 00 00 00 00 00 00 00 00 00 00 00 00 00 00 00 00
       0.0 0.0 0.0 0.0
000050 00 00 00 00 00 00 00 00 00 00 00 00 00 00 00 00
       0.0 0.0 0.0 0.0
000060 00 00 00 00 00 00 00 00 00 00 00 00 00 00 00 00
       0.0 0.0 0.0 0.0
000070 00 00 00 00 00 00 00 00 00 00 00 00 00 00 00 00
       0.0 0.0 0.0 0.0
000080 00 00 00 00 00 00 00 00 00 00 00 00 00 00 00 00
       0.0 0.0 0.0 0.0
000090 00 00 00 00 00 00 00 00 00 00 00 00 00 00 00 00
       0.0 0.0 0.0 0.0
0000a0 00 00 00 00 00 00 00 00 00 00 00 00 00 00 00 00
       0.0 0.0 0.0 0.0
0000b0 00 00 00 00 00 00 00 00 00 00 00 00 00 00 00 00
       0.0 0.0 0.0 0.0
0000c0 00 00 00 00 00 00 00 00 00 00 00 00 00 00 00 00
       0.0 0.0 0.0 0.0
0000d0 00 00 00 00 00 00 00 00 00 00 00 00 00 00 00 00
       0.0 0.0 0.0 0.0
0000e0 00 00 00 00 00 00 00 00 00 00 00 00 00 00 00 00
       0.0 0.0 0.0 0.0
0000f0 00 00 00 00 00 00 00 00 00 00 00 00 00 00 00 00
       0.0 0.0 0.0 0.0
000100 00 00 00 00 00 00 00 00 00 00 00 00 00 00 00 00
       0.0 0.0 0.0 0.0
000110 00 00 00 00 00 00 00 00 00 00 00 00 00 00 00 00
       0.0 0.0 0.0 0.0
000120 00 00 00 00 00 00 00 00 00 00 00 00 00 00 00 00
       0.0 0.0 0.0 0.0
000130 00 00 00 00 00 00 00 00 00 00 00 00 00 00 00 00
       0.0 0.0 0.0 0.0
000140 00 00 00 00 00 00 00 00 00 00 00 00 00 00 00 00
       0.0 0.0 0.0 0.0
000150 00 00 00 00 00 00 00 00 00 00 00 00 00 00 00 00
       0.0 0.0 0.0 0.0
000160 00 00 00 00 00 00 00 00 00 00 00 00 00 00 00 00
       0.0 0.0 0.0 0.0
000170 00 00 00 00 00 00 00 00 00 00 00 00 00 00 00 00
       0.0 0.0 0.0 0.0
000180 00 00 00 00 00 00 00 00 00 00 00 00 00 00 00 00
       0.0 0.0 0.0 0.0

hidden1_bn.running_var f4 [100]
000000 00 00 80 3f 00 00 80 3f 00 00 80 3f 00 00 80 3f
       1.0 1.0 1.0 1.0
000010 00 00 80 3f 00 00 80 3f 00 00 80 3f 00 00 80 3f
       1.0 1.0 1.0 1.0
000020 00 00 80 3f 00 00 80 3f 00 00 80 3f 00 00 80 3f
       1.0 1.0 1.0 1.0
000030 00 00 80 3f 00 00 80 3f 00 00 80 3f 00 00 80 3f
       1.0 1.0 1.0 1.0
000040 00 00 80 3f 00 00 80 3f 00 00 80 3f 00 00 80 3f
       1.0 1.0 1.0 1.0
000050 00 00 80 3f 00 00 80 3f 00 00 80 3f 00 00 80 3f
       1.0 1.0 1.0 1.0
000060 00 00 80 3f 00 00 80 3f 00 00 80 3f 00 00 80 3f
       1.0 1.0 1.0 1.0
000070 00 00 80 3f 00 00 80 3f 00 00 80 3f 00 00 80 3f
       1.0 1.0 1.0 1.0
000080 00 00 80 3f 00 00 80 3f 00 00 80 3f 00 00 80 3f
       1.0 1.0 1.0 1.0
000090 00 00 80 3f 00 00 80 3f 00 00 80 3f 00 00 80 3f
       1.0 1.0 1.0 1.0
0000a0 00 00 80 3f 00 00 80 3f 00 00 80 3f 00 00 80 3f
       1.0 1.0 1.0 1.0
0000b0 00 00 80 3f 00 00 80 3f 00 00 80 3f 00 00 80 3f
       1.0 1.0 1.0 1.0
0000c0 00 00 80 3f 00 00 80 3f 00 00 80 3f 00 00 80 3f
       1.0 1.0 1.0 1.0
0000d0 00 00 80 3f 00 00 80 3f 00 00 80 3f 00 00 80 3f
       1.0 1.0 1.0 1.0
0000e0 00 00 80 3f 00 00 80 3f 00 00 80 3f 00 00 80 3f
       1.0 1.0 1.0 1.0
0000f0 00 00 80 3f 00 00 80 3f 00 00 80 3f 00 00 80 3f
       1.0 1.0 1.0 1.0
000100 00 00 80 3f 00 00 80 3f 00 00 80 3f 00 00 80 3f
       1.0 1.0 1.0 1.0
000110 00 00 80 3f 00 00 80 3f 00 00 80 3f 00 00 80 3f
       1.0 1.0 1.0 1.0
000120 00 00 80 3f 00 00 80 3f 00 00 80 3f 00 00 80 3f
       1.0 1.0 1.0 1.0
000130 00 00 80 3f 00 00 80 3f 00 00 80 3f 00 00 80 3f
       1.0 1.0 1.0 1.0
000140 00 00 80 3f 00 00 80 3f 00 00 80 3f 00 00 80 3f
       1.0 1.0 1.0 1.0
000150 00 00 80 3f 00 00 80 3f 00 00 80 3f 00 00 80 3f
       1.0 1.0 1.0 1.0
000160 00 00 80 3f 00 00 80 3f 00 00 80 3f 00 00 80 3f
       1.0 1.0 1.0 1.0
000170 00 00 80 3f 00 00 80 3f 00 00 80 3f 00 00 80 3f
       1.0 1.0 1.0 1.0
000180 00 00 80 3f 00 00 80 3f 00 00 80 3f 00 00 80 3f
       1.0 1.0 1.0 1.0

hidden2_bn.weight f4 [100]
000000 38 91 bb 3e 4d bb 77 3f fc eb 99 3e b6 82 ab 3e
       0.3663423 0.96770173 0.30062854 0.33498162
000010 bf 8d 46 3f c0 f6 92 3c f0 2d 10 3d c1 59 3f 3f
       0.7756004 0.017939925 0.03520006 0.7474633
000020 f6 70 d3 3e 68 23 e9 3e 90 64 7b 3e b4 81 4e 3f
       0.4129712 0.45534825 0.2455008 0.8066666
000030 c0 4f e5 3c 80 47 62 3e b8 f5 95 3e 62 a8 21 3f
       0.02799213 0.22097588 0.2928903 0.63147557
000040 d4 bf 9a 3e d7 73 7c 3f 34 cc b3 3e 20 ca d7 3d
       0.30224478 0.9861426 0.35116732 0.10536599
000050 30 95 fe 3e f9 cd 38 3f 7f 8e 64 3f 2d d1 22 3f
       0.49723196 0.7218929 0.8927993 0.63600427
000060 d6 6f 8b 3e 34 29 12 3f 30 f4 1a 3d 51 f3 5a 3f
       0.27233762 0.5709412 0.03783053 0.8552752
000070 9e 65 86 3e ce 53 ee 3e 1a e4 e6 3e e7 7c 70 3f
       0.26249403 0.46548313 0.45095903 0.93940586
000080 78 e9 1b 3f ae ec e0 3e c0 58 61 3c 52 05 2f 3f
       0.6090312 0.43930572 0.01375407 0.68367493
000090 5b b1 3c 3f c0 95 ad 3e cb 44 4b 3f d0 c9 04 3e
       0.7370812 0.33903313 0.79401845 0.1296761
0000a0 43 74 45 3f 74 5f e7 3e 25 f7 4c 3f 12 00 0f 3f
       0.77130526 0.45190012 0.8006461 0.5585948
0000b0 0e 98 28 3f 18 83 39 3f e0 66 2a 3f 08 30 de 3e
       0.6585702 0.7246566 0.66563225 0.4339602
0000c0 4c 55 e1 3e 8e b7 d0 3e a6 7c d0 3e 38 8d 6f 3f
       0.4401039 0.4076504 0.407201 0.9357486
0000d0 c2 18 f3 3e 90 e0 20 3e a5 7b 0a 3f 77 e9 68 3f
       0.47479826 0.15710664 0.54094917 0.9098124
0000e0 77 8b 4f 3f f0 aa 7d 3e d8 32 a4 3d 58 a7 e2 3e
       0.8107218 0.24772239 0.0801751 0.44268298
0000f0 30 eb 4c 3d 70 e3 7d 3d 12 aa 4d 3f f8 08 f6 3e
       0.05002898 0.06198448 0.8033763 0.48053718
000100 b3 15 4b 3f e2 db 04 3f 23 02 57 3f fc bd 85 3e
       0.79329985 0.51898015 0.83987635 0.2612151
000110 6a 4f 87 3e 94 3d 28 3e 75 05 45 3f 6c b4 2b 3e
       0.26427776 0.1642974 0.7696145 0.16768044
000120 14 36 4b 3f b1 4f 5e 3f 7e fb 81 3e 3f 14 0a 3f
       0.7937939 0.8684035 0.25387186 0.53937143
000130 a2 78 a5 3e 78 ad 1d 3e b0 a6 d1 3d 10 78 69 3e
       0.32318598 0.15398204 0.10236871 0.22799706
000140 53 53 2b 3f 21 07 40 3f e6 89 6a 3f d0 9e 7c 3d
       0.6692402 0.7501088 0.91616666 0.061674893
000150 6e a1 cc 3e 06 11 08 3f d8 4a 3c 3e 58 66 42 3e
       0.3996691 0.53150976 0.18387926 0.18984354
000160 6c d4 64 3e 4c 2a bc 3e 98 c9 8a 3e 12 4c af 3e
       0.22346658 0.3675102 0.2710693 0.34237725
000170 c2 91 c4 3e 70 47 7b 3e 2e 19 d3 3e 78 e9 fa 3d
       0.38392454 0.2453897 0.41230148 0.12251562
000180 30 b4 8d 3e 72 36 e5 3e 82 7d d3 3e ac 3a 64 3e
       0.27676535 0.447681 0.41306692 0.22288007

hidden2_bn.bias f4 [100]
000000 00 00 00 00 00 00 00 00 00 00 00 00 00 00 00 00
       0.0 0.0 0.0 0.0
000010 00 00 00 00 00 00 00 00 00 00 00 00 00 00 00 00
       0.0 0.0 0.0 0.0
000020 00 00 00 00 00 00 00 00 00 00 00 00 00 00 00 00
       0.0 0.0 0.0 0.0
000030 00 00 00 00 00 00 00 00 00 00 00 00 00 00 00 00
       0.0 0.0 0.0 0.0
000040 00 00 00 00 00 00 00 00 00 00 00 00 00 00 00 00
       0.0 0.0 0.0 0.0
000050 00 00 00 00 00 00 00 00 00 00 00 00 00 00 00 00
       0.0 0.0 0.0 0.0
000060 00 00 00 00 00 00 00 00 00 00 00 00 00 00 00 00
       0.0 0.0 0.0 0.0
000070 00 00 00 00 00 00 00 00 00 00 00 00 00 00 00 00
       0.0 0.0 0.0 0.0
000080 00 00 00 00 00 00 00 00 00 00 00 00 00 00 00 00
       0.0 0.0 0.0 0.0
000090 00 00 00 00 00 00 00 00 00 00 00 00 00 00 00 00
       0.0 0.0 0.0 0.0
0000a0 00 00 00 00 00 00 00 00 00 00 00 00 00 00 00 00
       0.0 0.0 0.0 0.0
0000b0 00 00 00 00 00 00 00 00 00 00 00 00 00 00 00 00
       0.0 0.0 0.0 0.0
0000c0 00 00 00 00 00 00 00 00 00 00 00 00 00 00 00 00
       0.0 0.0 0.0 0.0
0000d0 00 00 00 00 00 00 00 00 00 00 00 00 00 00 00 00
       0.0 0.0 0.0 0.0
0000e0 00 00 00 00 00 00 00 00 00 00 00 00 00 00 00 00
       0.0 0.0 0.0 0.0
0000f0 00 00 00 00 00 00 00 00 00 00 00 00 00 00 00 00
       0.0 0.0 0.0 0.0
000100 00 00 00 00 00 00 00 00 00 00 00 00 00 00 00 00
       0.0 0.0 0.0 0.0
000110 00 00 00 00 00 00 00 00 00 00 00 00 00 00 00 00
       0.0 0.0 0.0 0.0
000120 00 00 00 00 00 00 00 00 00 00 00 00 00 00 00 00
       0.0 0.0 0.0 0.0
000130 00 00 00 00 00 00 00 00 00 00 00 00 00 00 00 00
       0.0 0.0 0.0 0.0
000140 00 00 00 00 00 00 00 00 00 00 00 00 00 00 00 00
       0.0 0.0 0.0 0.0
000150 00 00 00 00 00 00 00 00 00 00 00 00 00 00 00 00
       0.0 0.0 0.0 0.0
000160 00 00 00 00 00 00 00 00 00 00 00 00 00 00 00 00
       0.0 0.0 0.0 0.0
000170 00 00 00 00 00 00 00 00 00 00 00 00 00 00 00 00
       0.0 0.0 0.0 0.0
000180 00 00 00 00 00 00 00 00 00 00 00 00 00 00 00 00
       0.0 0.0 0.0 0.0
