Week17/mnist_lenet.pt (torch_old, 88764 bytes, 8 tensors)

conv1.weight f4 [10, 1, 5, 5]
000000 b9 e6 04 3e b6 ee b2 bd e9 e8 8b 3e aa 2d 84 3e
       0.12978639 -0.08736937 0.27326134 0.2581609
000010 29 df 82 3e b1 ca 9f 3d 09 ae 97 3e 9d 51 43 3e
       0.25560883 0.07802332 0.29624966 0.19074102
000020 a8 54 00 3d 13 43 e4 bc 68 14 15 3c 8c a0 2e 3e
       0.031330734 -0.027864015 0.0090991035 0.17053431
000030 78 2c 27 be 89 9a 1d bd 51 78 eb bc a8 bc 85 3d
       -0.16325557 -0.038477454 -0.028743895 0.06530124
000040 f3 5f 88 bd 13 57 37 be 31 91 77 be 89 83 5a be
       -0.06658926 -0.1790431 -0.2417648 -0.21339239
000050 50 67 df 3b ae a6 96 be 30 b9 9a be 8f 57 84 bc
       0.0068177357 -0.29424042 -0.30219412 -0.016155032
000060 50 29 ba bd 58 d2 98 bd d6 76 fb 3b dc 19 cb bb
       -0.09089911 -0.07461995 0.0076740785 -0.006198151
000070 10 09 47 3d 52 83 80 bd 35 f6 27 3e 66 d4 b1 bd
       0.048592627 -0.06275047 0.16402514 -0.0868309
000080 96 8e 55 ba 0f 19 bf 3d a8 c8 b3 bd 00 8b b9 3c
       -0.0008146552 0.093309514 -0.087785065 0.022649288
000090 b6 a2 b5 3d 3f d6 c5 3d c2 03 b9 3c 4d 91 05 3e
       0.08868925 0.09660005 0.0225848 0.13043709
0000a0 8a cc 41 3d f3 6d 7c 3b 74 92 4f bd 28 b8 08 be
       0.047314204 0.0038517683 -0.050676778 -0.133515
0000b0 6d 82 6b bc 78 48 64 3e 5e b7 8a bd 90 a9 03 be
       -0.014374358 0.2229327 -0.06773256 -0.12857652
0000c0 a4 17 0e 3d 42 9a 13 be 5a 09 86 3d 08 9e e7 bd
       0.034690514 -0.14414313 0.065447524 -0.11309439
0000d0 e8 c6 39 be 1f 82 f3 bd 72 0d 53 3e df 3a f1 bd
       -0.18142283 -0.11890053 0.20610598 -0.11778807
0000e0 4f 53 10 bd 8b d6 57 bd 7d 4d 5e 3e ce 9e 5f 3d
       -0.0352357 -0.05269484 0.21709247 0.054594807
0000f0 46 de de bd 0b 87 1f be f1 f1 94 bc 9f 1b a2 bd
       -0.10882239 -0.15578859 -0.018181773 -0.079154246
000100 6c cf 1a 3e 82 18 ef bd bb 98 09 be cb 95 8a bd
       0.15118188 -0.11674596 -0.13437168 -0.06766852
000110 85 84 56 3d 77 b8 04 3e 51 48 93 bd e8 f5 15 3b
       0.052372474 0.12960993 -0.07191528 0.0022882167
000120 bb 3b b1 bd 5f be 5b bc fe b1 79 3e 2b 89 05 3b
       -0.08653971 -0.013412087 0.24384305 0.0020375948
000130 9c df 71 3e 47 c4 a8 3d 27 2d 6b bd 6c d8 75 3d
       0.23620456 0.08240562 -0.057416108 0.06002085
000140 b6 02 87 3d e1 cf 97 3e 47 24 04 3f a4 87 d7 3e
       0.06592314 0.29650787 0.51617855 0.42095673
000150 1a ab 9b 3e 01 bd 22 3e 5c 2f de bd 26 b4 f6 3d
       0.30403978 0.15892412 -0.10848877 0.12046079
000160 b2 90 8a 3e 9d 1d d0 3d 15 91 96 be ba f6 cb be
       0.2706352 0.10161898 -0.29407564 -0.39836675
000170 cc 44 c1 be 50 8f 95 be b5 31 ea bd 48 9f ba be
       -0.377478 -0.292109 -0.11435262 -0.36449647
000180 24 5f 69 be 8a 7a dd be 60 43 8e be e8 de 9b bd
       -0.227902 -0.43257552 -0.27785778 -0.07610875
000190 6a a1 85 bd ac 68 d9 3d ed ab b1 3d e4 d8 1f 3c
       -0.06524928 0.10615668 0.0867537 0.009756301
0001a0 f6 64 a7 bd 3a ad 6b be 27 69 62 be 18 4a 16 be
       -0.08173554 -0.230153 -0.22110425 -0.14676702
0001b0 b8 2a c9 bd 2d bc 00 be c6 58 69 bd fa 91 8c 3c
       -0.09822601 -0.12571783 -0.056969427 0.01715945
0001c0 47 af 20 be 27 4a 80 bd 95 70 3a 3d 63 f1 dd 3d
       -0.15691863 -0.062641434 0.045517523 0.108370565
0001d0 4b 79 10 be f3 e1 43 bd a2 ac 27 be b5 38 8f bd
       -0.1410877 -0.047822904 -0.16374448 -0.06993238
0001e0 86 ed 22 be 7d cf 0b 3e 64 cb aa bd a1 ce b4 3d
       -0.1591092 0.13653369 -0.08339575 0.08828474
0001f0 08 54 6c 3e b2 b6 d2 bd 44 e7 50 be 28 e0 6b bd
       0.2307893 -0.102887526 -0.20400721 -0.05758682
000200 11 1e 37 be a4 ed 00 bd 7f 94 22 3e f8 ec a1 3d
       -0.17882563 -0.03147663 0.1587696 0.07906526
000210 4c 87 e5 bd 52 c9 98 be 9c 63 67 bd 95 6c eb bd
       -0.112074465 -0.29841095 -0.05649148 -0.1149532
000220 d1 6a 92 3e f9 6c 1d 3e 32 01 15 3d e1 b1 d1 bd
       0.2859712 0.15373601 0.036378093 -0.10239006
000230 ca ef 56 3e 8d ce c8 3e 79 56 eb 3e 98 73 0b be
       0.2098991 0.39220086 0.4596441 -0.13618314
000240 3c 6a 31 3e f6 76 0d be 0b 76 97 3e 97 09 36 3e
       0.17325681 -0.13814911 0.29582247 0.17777096
000250 2e 22 2e bd 8b 0f bf 3d 55 81 8a bd 54 f1 65 be
       -0.042513065 0.093291365 -0.067629494 -0.2245534
000260 c3 4d c9 be 0b dc 57 be 26 16 7e be d2 5b 39 be
       -0.3931714 -0.21080033 -0.24813136 -0.18101433
000270 fe de ae be 9e 5a c4 bd 43 34 8b be 62 f3 2b 3e
       -0.34154505 -0.09587596 -0.2718831 0.16792062
000280 7a 5d 08 bd 97 e5 24 be b9 e7 20 be 8c 37 5d 3c
       -0.03329227 -0.16103207 -0.15713395 0.013502013
000290 dd 2e 94 3e ae 4c 93 3c 55 f1 86 bd 60 6f 23 3e
       0.28942004 0.0179809 -0.06588999 0.15960455
0002a0 64 6a 64 3e 31 3e bb 3e 4a e3 39 bd 27 14 55 3d
       0.2230621 0.36570886 -0.045382775 0.052021172
0002b0 43 5e 9f bd 9a ce da 3c d4 b7 92 3e 93 54 56 3e
       -0.07781651 0.026709843 0.28655875 0.209307
0002c0 df 12 d4 3e a9 0c 6b 3e ec 96 bd bd 9b 88 03 be
       0.41420648 0.22954048 -0.09257302 -0.1284508
0002d0 b0 37 f9 3d ea 87 cd 3e 73 ac 6c bd 02 1f 74 be
       0.12168825 0.40142757 -0.057781648 -0.23839954
0002e0 30 e7 43 be 13 df 7c 3e c9 96 b8 3e 40 7b f9 bb
       -0.1913116 0.24694471 0.3605254 -0.0076135695
0002f0 2f 43 16 be a9 ef 65 be 51 0c a6 3e 03 a5 74 3e
       -0.14674066 -0.22454704 0.32431272 0.23891072
000300 a3 63 3e be e3 fc 5f be 31 5f 8b be 92 c9 3b 3e
       -0.18592696 -0.21873812 -0.27221063 0.18338612
000310 5a 22 44 3e a1 48 8d bd 53 5a 4f be c4 64 8e be
       0.19153729 -0.068986185 -0.202493 -0.27811253
000320 df 64 87 3e 01 0a 9f 3d 71 34 13 be 85 60 97 be
       0.26444146 0.0776558 -0.14375474 -0.29565826
000330 92 7a 87 be e4 7e a3 3e 16 95 58 3c 16 15 88 3c
       -0.264607 0.31932747 0.013219139 0.016611617
000340 ef 90 d9 be 70 cd be be 25 df 9c 3e 0a 3e 9e 3e
       -0.42493388 -0.3726611 0.30638996 0.30906707
000350 9b 00 81 3e 7c ed 21 be cf 14 5e be 26 05 1a 3e
       0.25195774 -0.1581325 -0.21687625 0.15041026
000360 db ae 14 3d 3c 47 85 3e e5 e7 8f 3e c6 99 81 3e
       0.036299568 0.2603091 0.2810661 0.25312632
000370 df ce f4 bd 76 02 02 3e 5b 19 a2 3d 1c 88 0e 3e
       -0.1195352 0.12696251 0.079149924 0.13919109
000380 45 9b 9c bd 1f 34 6b be cd c7 2f bc e3 e9 3e bc
       -0.07646803 -0.22969101 -0.010728789 -0.011652443
000390 aa 72 97 3d cc 2e a8 3d f5 71 da bd 89 7b 6c be
       0.07394917 0.08212051 -0.10666267 -0.23094
0003a0 4f 01 27 be 18 30 51 3e b8 a2 f0 3d a3 85 d3 bd
       -0.16309093 0.20428503 0.11749786 -0.103282236
0003b0 2b 06 8d 3c 67 89 1d 3d 82 81 8a 3d 76 5d a9 3d
       0.017214855 0.038461115 0.06762983 0.082697794
0003c0 f2 7c 4f be 07 8c 2a be d2 d2 c2 bd 5d 5c a6 3e
       -0.20262507 -0.16654979 -0.09512867 0.32492343
0003d0 8a fb 32 3e c3 ff 21 be 27 1b 2f 3b a2 e3 b0 3d
       0.17478767 -0.15820222 0.0026719065 0.086371675
0003e0 d1 32 85 3e d3 ce bd bd
       0.26015332 -0.09267964

conv1.bias f4 [10]
000000 59 af e3 bc 38 09 1c bd da 4b 7a bd 91 b8 51 3d
       -0.027793573 -0.03809473 -0.061107494 0.051201407
000010 da 61 67 3e 14 a9 aa 3a 48 aa 0f bd f8 f5 f3 be
       0.22595921 0.001302036 -0.035074502 -0.47648597
000020 39 32 8f be 41 6c 56 be
       -0.27968004 -0.20939733

conv2.weight f4 [20, 10, 5, 5]
000000 ad 26 ad ba ce 66 35 bd 45 74 9b bb 0b b1 29 bd
       -0.0013210379 -0.044287495 -0.004744085 -0.041428607
000010 3a f8 5e bd 91 a1 72 3d 46 af 4e bd b3 6c 9a bd
       -0.054435946 0.059236113 -0.050460123 -0.07540264
000020 83 75 32 bd b3 cd 1c 3e 07 86 4d 3d 39 ce 9d bd
       -0.0435691 0.15312843 0.050176647 -0.077053495
000030 cb 0d af bd 8e 15 f6 3b 3b 15 5e 3d ea 97 1c 3c
       -0.08547553 0.0075098937 0.054219466 0.0095577035
000040 70 85 58 bc 19 57 57 3d b6 f9 9a bd 6d a5 80 bd
       -0.013215408 0.052573297 -0.0756716 -0.062815525
000050 0b cf e7 bc 21 08 d6 bc ec d4 11 3b 58 7b 38 bd
       -0.028296968 -0.026126923 0.0022252155 -0.045039505
000060 7d 09 14 bd 25 da 0b bd cf fc 86 bd ed d0 1e 3d
       -0.03614186 -0.034143586 -0.06591188 0.038773466
000070 e9 30 4d bb ec 94 aa 3d 5a aa 08 3d 03 96 a0 bc
       -0.003130967 0.08329186 0.033365585 -0.019602781
000080 4d b7 9c bd b9 d1 4d bd 62 ac 79 3d c1 63 cd bc
       -0.07652149 -0.050248835 0.060955413 -0.02507198
000090 f4 63 1f 3c da f9 61 3c 9a 6a 31 3d b8 c7 c8 39
       0.0097284205 0.013792479 0.043314554 0.00038295775
0000a0 80 de 17 bd e2 fd 9b bb cf eb 35 3c 71 cb ea bc
       -0.037077427 -0.00476049 0.011103584 -0.028661462
0000b0 d1 b3 66 bd f6 e4 d1 3c 29 49 82 3c 0c 63 03 3d
       -0.05632383 0.025621872 0.015904026 0.03207688
0000c0 0f 42 6b bd 27 4f 5a bd 04 af 60 bd 2a 5c 41 bd
       -0.057436045 -0.05329814 -0.054854408 -0.047207035
0000d0 0f 60 37 3c a8 80 ac 3c 8c af 13 3d bb a5 a7 3c
       0.011192336 0.021057442 0.036056086 0.020464769
0000e0 11 01 64 bd 55 1a b1 b9 ab 96 78 3d 91 ca c5 bc
       -0.05566508 -0.0003377969 0.060690563 -0.024144443
0000f0 8e 88 39 bd 50 92 5a 3d e7 57 c9 3d 3d 29 8b 3d
       -0.045296244 0.05336219 0.09831219 0.06794975
000100 ac 4a 82 bd ef fd f1 3c 1c 5e a0 3a 4e 0c e0 3c
       -0.06361899 0.02954003 0.0012235078 0.027349617
000110 92 dc 74 bc 9d 34 22 bb 5a 59 cb bc fa 46 e1 3c
       -0.014945166 -0.0024750598 -0.02482288 0.027499665
000120 ab 48 b4 3d 2b 49 64 3d d6 c8 44 3c 79 b5 2b 3d
       0.08802923 0.05573384 0.012010774 0.041921113
000130 e3 92 1c 3d 6c 60 04 3b cf bd 01 bd ac 00 b3 bd
       0.03822602 0.0020199073 -0.031675156 -0.087403625
000140 10 65 0a bc 0b 28 dd bc 16 04 09 be 80 3a e5 bd
       -0.008446947 -0.026996633 -0.13380465 -0.111927986
000150 4b 11 8b bd 58 22 a5 3d 9f 18 2e bd 07 f7 42 bd
       -0.06790408 0.08063191 -0.04250395 -0.047598865
000160 85 98 c7 bd 81 82 aa bd 50 9e 72 3c 5f a8 15 3d
       -0.09745888 -0.08325673 0.014808252 0.036537524
000170 67 fc a3 bc dc d0 50 bd 9f b1 4d bd be b8 0c bc
       -0.020017816 -0.050980434 -0.05021822 -0.008588968
000180 88 92 7f 3c 0f b6 17 bd 5d d7 01 39 66 b1 a9 bc
       0.015598901 -0.03703886 0.00012382628 -0.020714473
000190 02 61 80 bd 8a f4 7a bc 77 8a 43 bd 09 c7 30 bc
       -0.06268503 -0.015317092 -0.047739472 -0.010789641
0001a0 54 ee 90 bd 13 2c 02 3d de d4 19 3d 65 8e 2d 3d
       -0.070767075 0.031780314 0.03755652 0.042372126
0001b0 28 67 9f bc 18 cc 56 bc 7f 1a 53 bc 31 7b 04 bd
       -0.019458368 -0.013110183 -0.012884735 -0.032344047
0001c0 13 41 5f 3d 22 84 c8 b9 0f 00 af ba 1f f3 e1 bc
       0.05450542 -0.0003824542 -0.0013351458 -0.02758175
0001d0 b7 6e 35 bd e7 8c d5 3a 75 8c ef 3a f5 18 78 bd
       -0.04429504 0.0016292603 0.0018276112 -0.060570676
0001e0 d0 56 08 bc cc 83 86 bd e4 38 db 3c 9c bf 5e bd
       -0.008321479 -0.06568107 0.026760526 -0.05438195
0001f0 fc c1 32 bd 2c d9 db 3b e2 05 15 be 32 f3 e3 bd
       -0.04364203 0.0067092385 -0.14553025 -0.1113037
000200 ba 11 dc 3d 21 09 03 3e e4 68 b2 3b 52 28 60 be
       0.107455686 0.12796451 0.005444633 -0.21890381
000210 dd 69 10 be 16 99 02 3d 19 69 17 3d f5 93 c2 bc
       -0.14102884 0.031884275 0.036965463 -0.023752192
000220 53 f0 e3 bd ca 9d ea 3b e0 d7 96 3d 90 fe e2 bd
       -0.111298226 0.007159923 0.07365394 -0.1108371
000230 8c d6 50 bd 7e de 26 bd 98 fb 9e bd 64 bd 0d bc
       -0.050985858 -0.04073953 -0.077628314 -0.008651111
000240 2a ae ae bd 07 60 8d 3d 99 cb 84 bd 8c 49 0e be
       -0.08529313 0.069030814 -0.06484146 -0.13895243
000250 d2 a7 26 be 6b f1 84 bc 62 20 07 bd d0 f7 2c bd
       -0.16274956 -0.016228398 -0.032989867 -0.04222852
000260 7b 4d 8a 3c 04 6e 56 bc fa a2 94 3c 85 e2 a6 bd
       0.016882649 -0.013087753 0.01814412 -0.08148674
000270 90 f2 b4 3c 44 e6 8a 3d 75 d4 e6 3c bc e3 f4 bd
       0.022088319 0.06782201 0.02817748 -0.119574994
000280 33 d0 0f 3d a6 ec 12 3d 57 b6 06 3e 60 78 3d 3c
       0.035110664 0.035870217 0.13155495 0.011564344
000290 fc 29 4b be 90 99 6b bc 3b 93 8a 3d 4b ad 60 3c
       -0.19840235 -0.014379874 0.06766363 0.013713191
0002a0 84 51 91 bd 70 b8 ac bd d1 ee a4 3c 4d 41 8d bd
       -0.07095626 -0.08433616 0.020133408 -0.06897221
0002b0 8c 0b a6 bd 61 4c 82 3c 32 1c 54 bd 8d ff 89 bc
       -0.08107671 0.01590556 -0.0517847 -0.016845489
0002c0 af 52 35 bc 75 66 9f bd 3e 82 d2 3d 3a c2 49 3d
       -0.011067077 -0.07783214 0.10278748 0.049257495
0002d0 70 9d 2f bd 5c af 6f bd e4 74 6f 3c 8c 32 01 3e
       -0.042874753 -0.058516845 0.014615271 0.12616938
0002e0 72 08 23 3e 19 b6 6b 3d 95 72 1a be 4d f5 df 3d
       0.1592119 0.05754671 -0.15082772 0.10935459
0002f0 c5 ef f7 3d 8f 48 ff 3d 2b ae 9a 3d 42 45 93 bd
       0.12106279 0.12465011 0.07552751 -0.07190944
000300 0d bd 3e 3e 6f 2a e4 3d 33 23 cd bc ea 31 cc bc
       0.18626805 0.11140906 -0.025041198 -0.024926145
000310 8c 7a 92 3c c9 68 92 3d 62 a7 23 bd c0 5d 96 bd
       0.0178807 0.071488924 -0.03995455 -0.073421
000320 e1 f9 2f bc 02 89 5d bd f2 d1 3e be 28 b1 f8 3c
       -0.010740728 -0.05408574 -0.18634775 0.030357912
000330 74 cc 17 3e 78 fd 49 bd e4 5a ed bd bc 60 5c be
       0.14824086 -0.049313992 -0.11589602 -0.21521276
000340 b6 54 8a bc ef 33 26 3c 00 c2 b6 bc 25 f3 00 be
       -0.016886096 0.010144218 -0.022309303 -0.12592752
000350 d4 e7 f0 bd 6b 63 0b 3b 81 35 f9 3d b5 11 65 bd
       -0.11762968 0.0021268975 0.12168408 -0.05592509
000360 48 b3 0c be 80 49 16 3c f4 d1 5a 3d 58 bf 05 3e
       -0.13740265 0.009172797 0.053422883 0.13061273
000370 b1 a1 1c 3d 9d af 9a bd 11 03 3d bd 53 62 76 bc
       0.03824014 -0.07553027 -0.046145502 -0.015038091
000380 1f 43 98 3d da 88 a3 bd a5 f4 8f bd 6c 66 ef ba
       0.07434677 -0.07985087 -0.07029084 -0.0018264777
000390 28 f9 48 3d 3f dc 96 3d 00 1e 3b bd b5 5e 82 bd
       0.04906574 0.07366227 -0.045682907 -0.0636572
0003a0 60 82 c5 3d ed df 2a 3d a3 e4 bb bc 92 75 86 bc
       0.09644008 0.04171746 -0.02293617 -0.016413484
0003b0 77 61 ec bc 59 84 01 3d b0 bc c3 3b d7 de a7 bd
       -0.028855069 0.031620357 0.005973421 -0.081968
0003c0 eb d0 a9 bb 39 09 6e 3c 1d 9b 06 3d 08 7c ec 3c
       -0.0051823757 0.014528566 0.03286277 0.028867736
0003d0 d6 a5 6d bd 1c df e2 bd 25 c0 a5 bc 37 ec 96 3d
       -0.05801948 -0.11077711 -0.020233223 0.07369273
0003e0 84 85 a7 3b e0 50 75 bd 97 3f 3a bd f9 d7 02 3c
       0.005112352 -0.05989158 -0.0454708 0.007986062
0003f0 8e 4c 06 bd e3 78 3d 3d 37 6b dc 3b d2 e6 6a bd
       -0.032787852 0.046257865 0.006726648 -0.057349034

conv2.bias f4 [20]
000000 42 69 70 bd a3 c9 1e bd a9 6c e5 3c af cc e5 bd
       -0.05869413 -0.038766515 0.028005915 -0.11220681
000010 98 db 61 bd 02 a6 ad bd aa 30 c6 3d 6c 51 87 bc
       -0.05514106 -0.08478929 0.09677251 -0.016518317
000020 22 fb 81 bd 5b 5d ea 3c 9d 98 41 3d be 13 ee bb
       -0.06346728 0.028608968 0.047264684 -0.007265537
000030 ad 7e ff bc 40 af 4f 3b c5 bb b0 bc dd fa 58 bc
       -0.031188333 0.003169015 -0.02157391 -0.013243404
000040 45 f3 63 bd a1 82 61 bc f4 35 1c be f0 6c 49 bd
       -0.05565192 -0.0137640545 -0.15254956 -0.049176157

fc1.weight f4 [50, 320]
000000 23 9c ee 3c f0 01 bb 3d 4c e7 8b 3c bc b3 5d bc
       0.029127186 0.09131229 0.017078064 -0.013531622
000010 f0 d8 53 bc d5 99 48 bd 5b f4 be bc 47 f9 40 3d
       -0.01293014 -0.04897483 -0.023309877 0.04711273
000020 c3 9a 7b bc f2 25 98 bd 73 42 29 3d fa 1b bc 3d
       -0.015356722 -0.074291125 0.041323137 0.091850236
000030 f4 77 23 3c c2 b0 97 bc 76 28 fd bd e8 1d be bc
       0.0099773295 -0.018516902 -0.12361233 -0.02320762
000040 37 95 19 3d f7 2c 8b bd f4 be cd bd 0c e1 fa 3b
       0.037495818 -0.06795686 -0.10046187 0.007656222
000050 65 8b ef 3d 57 b1 98 3d 82 ca a0 bd e6 d0 88 3d
       0.11696509 0.074557 -0.07851125 0.06680469
000060 19 7f d2 3c b3 e5 aa 3d 9e 66 ac 3d 78 6d e5 3c
       0.02569537 0.08344593 0.0841801 0.0280063
000070 41 c2 1d bd 38 65 a9 bd de 4e af 3b ee 0f 6b 3c
       -0.038515333 -0.08271259 0.005349978 0.01434706
000080 5f d4 00 3e f3 a0 a0 3d fb 3e 91 3d 55 99 44 3d
       0.12581013 0.078431986 0.07092091 0.04799779
000090 29 6c eb 3c 8a a2 60 3d 94 bd 33 3c 96 24 99 bd
       0.028738098 0.05484251 0.010970492 -0.07477681
0000a0 32 9a b2 bc 52 0b 62 bd d8 ce d5 bd 17 2b b2 bd
       -0.021802042 -0.055186577 -0.10439843 -0.08699625
0000b0 33 0a 8c bc 19 e7 ea bb be 14 e8 3c 7f c1 e1 3d
       -0.017094707 -0.0071686623 0.028330203 0.110232346
0000c0 c6 13 51 bd fa f4 6c bd 11 6f 0b bd b7 0f a3 3c
       -0.051044248 -0.057850815 -0.034041468 0.019904954
0000d0 62 50 81 3d 3c 94 a5 bc 5b 62 ee bc 30 ce 32 bd
       0.0631416 -0.020212285 -0.029099634 -0.043653667
0000e0 51 0a 5a bd 36 51 78 bb 53 e5 5e 3d 92 cc 2a 3c
       -0.053232495 -0.0037890202 0.05441792 0.01042475
0000f0 17 f7 99 bc bd 46 b2 3c 4f 8e 59 3b 00 52 a6 3c
       -0.01879458 0.021762246 0.0033196395 0.020302773
000100 63 69 94 bc fb 3d 14 bd ea 7f db 3b 9a 25 8c bc
       -0.018116659 -0.03619192 0.006698598 -0.017107774
000110 f0 9e 8a bc 13 7f 5f bc 0c 6d 16 bd 29 37 28 3c
       -0.01692149 -0.013641137 -0.03672509 0.010267057
000120 c5 33 0a 3e f0 3f 94 3d 77 8e cf bb ea 97 64 bd
       0.13496311 0.072387576 -0.006334122 -0.05580894
000130 89 b6 7c bd 5b 38 08 be f0 ae d6 bd 35 53 c6 bc
       -0.061697517 -0.13302748 -0.104825854 -0.024209598
000140 01 2f 6a bc 8c fc b0 bd 8a fc 00 be ef 31 04 bd
       -0.014293433 -0.086419195 -0.12596336 -0.032274183
000150 c1 a6 fd 3b 46 e4 29 bc bf 6d a7 3c b1 50 41 3d
       0.007740826 -0.010369366 0.020438073 0.047196094
000160 f7 db 55 bc 1d 57 7e 3d 1a 51 8b 3d 7b 9b 95 3c
       -0.013052932 0.062094796 0.06802578 0.018262615
000170 1d 45 0c bd 8d 3f 7a bd fe 59 ab 3c eb a1 30 3c
       -0.0342456 -0.061095763 0.020916935 0.010780792
000180 1b 0d 52 3d c1 ce d3 3c 03 81 f3 bc 76 71 20 bd
       0.05128203 0.025855424 -0.029724604 -0.039170705
000190 de 88 74 bd 1c 07 0c 3d c2 b4 24 3d 0a 36 50 3d
       -0.05970084 0.034186468 0.040211447 0.050832786
0001a0 d0 28 ed bc 55 8b ba 3b 03 e0 8d 3a 5b 2b 15 3d
       -0.028950125 0.005692879 0.0010824207 0.0364183
0001b0 82 68 2c 3d 5e 7a 85 bc ac e7 a1 bc ed 45 eb bd
       0.042091854 -0.0162937 -0.01976379 -0.11487947
0001c0 74 ee 3d 3b e1 30 24 bd 5c c7 18 bd b9 1f 19 bd
       0.002898124 -0.040085677 -0.0372995 -0.03738377
0001d0 53 40 95 3a 90 e6 74 bc 4d 37 3a 3d 1e e9 96 3d
       0.0011386968 -0.0149475485 0.045462895 0.07368682
0001e0 1a 3c d2 3d 28 4b 72 3b d4 bd ff 3c e1 d8 2d 3d
       0.1026537 0.0036971066 0.031218447 0.04244316
0001f0 b1 ba 87 3d b9 36 3c bc 6b 3f ce bd 0a ea da bc
       0.066274054 -0.011487656 -0.1007069 -0.026722927
000200 7d 51 f0 bb 3b ec 2d 3d 7a 29 f8 3c 88 ed e1 3b
       -0.007333933 0.042461615 0.030293215 0.006894771
000210 03 0c c4 bd eb e6 65 bd 05 f4 6c bc 22 b1 10 3d
       -0.095726036 -0.056128424 -0.014462476 0.035325177
000220 a4 e8 eb bc 97 59 d7 bd 69 7f c6 bd f0 ba 91 bc
       -0.028797455 -0.10515135 -0.0969227 -0.017789334
000230 bf 38 1a 3d 14 5b 4e 3c ef 7e 0f 3d 9f 12 72 3d
       0.037651774 0.012594957 0.035033163 0.05909979
000240 38 cb 69 3c df 87 11 3c ca 08 a0 3c a1 c6 11 3c
       0.0142696425 0.008882492 0.019535441 0.0088974545
000250 48 c1 64 3d a8 88 47 b8 16 da 36 3d d4 3d 89 ba
       0.05584839 -4.757257e-05 0.044641577 -0.0010470697
000260 09 7f 4d 3d c7 7a 37 3d d2 09 2e bc 10 55 01 bb
       0.05016998 0.044794824 -0.0106224585 -0.001973454
000270 b0 73 91 3b 70 e0 38 3c db a0 de bd 98 d7 95 bd
       0.00443884 0.011283979 -0.108705245 -0.07316512
000280 2f 25 f0 bc e7 01 5f 3c 49 21 bb 3c ce 97 90 3c
       -0.029314606 0.013611293 0.02284302 0.017650511
000290 49 71 90 bd 6b a2 37 be 34 8a a5 bd 73 56 a2 3d
       -0.070528574 -0.17933051 -0.08083001 0.07926645
0002a0 56 bf 01 be 5b 9d b1 bd 50 46 f7 bd 12 e8 58 3d
       -0.12670645 -0.08672591 -0.12073958 0.052955694
0002b0 12 a2 4a bd d4 8b 51 3d fd 2a bd 3d 23 3d 0d 3e
       -0.04947097 0.05115874 0.09236715 0.13792853
0002c0 95 ef 30 bd be 49 4a bd db 12 4a b9 6d 7b c3 3a
       -0.043197233 -0.049386732 -0.00019271245 0.0014914103
0002d0 83 04 78 3b 3f f4 78 bc f5 b2 a0 bc d9 22 c8 bd
       0.0037844486 -0.015194952 -0.019616583 -0.09772272
0002e0 65 a9 95 3b 52 fc 14 bd 28 43 dc 3c 5d 0b 61 bc
       0.0045673125 -0.036373444 0.026887491 -0.013735619
0002f0 45 ad 8f bb ba 72 78 3b 9b 9a 53 3d c5 fc 6e 3d
       -0.004384669 0.003791018 0.051661115 0.05834653
000300 a3 fd 03 bd b8 30 08 bd 05 7e 99 3d 9c a3 bd 3d
       -0.03222431 -0.033249587 0.074947394 0.09259722
000310 83 33 a7 bd 36 98 46 bd 2b f8 38 bc bd ef 7f 3c
       -0.08164122 -0.048485003 -0.011289637 0.015621123
000320 5e 8f 56 bc 87 ec 06 3c d3 be 32 bb 82 ec d5 3d
       -0.013095705 0.008235103 -0.0027274385 0.10445501
000330 dd a7 c1 3c 32 a5 fd 3c ea c2 9d 3d 6a 8b d5 3d
       0.023639614 0.03096256 0.077031925 0.10426982
000340 5b ea 03 3d 61 98 7a 3d 64 2f 80 bb 52 64 55 bd
       0.03220592 0.061180476 -0.0039118994 -0.052097626
000350 be e7 09 ba 95 9a 8f bc 17 61 d3 bc b7 c7 6e bd
       -0.00052606675 -0.017529765 -0.025803132 -0.05829593
000360 11 29 de 3d fa 37 ef bc ff 20 02 bb 29 00 1c 3c
       0.108476765 -0.029201496 -0.0019856093 0.009521523
000370 53 4b 54 3d b6 c8 2a bd a1 8f 91 b9 0b 65 dd 3b
       0.051829647 -0.04169532 -0.00027763567 0.00675643
000380 50 c1 9e bc cb ae 82 bd 1f 3e 31 3c 2a d3 34 3a
       -0.019379288 -0.06380995 0.0108180335 0.0006897921
000390 1b 4a be bc c7 02 8e bd ad 59 d7 bb 40 fb 3e 3d
       -0.023228696 -0.069341235 -0.0065719695 0.04662633
0003a0 a8 b2 6e 3d f0 e1 e7 bb 67 e8 ea 3c ec b8 7a 3d
       0.05827585 -0.0070764944 0.028675271 0.06121151
0003b0 e0 51 07 3e dc 94 2d 3d de 44 e3 bc 8e e9 aa bd
       0.13214827 0.04237829 -0.0277428 -0.08345328
0003c0 52 47 59 bd 8b 98 ef bb 9a 26 93 3d 14 11 1b 3a
       -0.053046532 -0.0073118857 0.07185097 0.00059153256
0003d0 a5 8c 98 bd 16 62 e4 bc 6d 64 16 bd 4c 67 75 bd
       -0.07448701 -0.027878802 -0.036716867 -0.059912965
0003e0 44 1a cd bd be e9 c2 bd fc 12 95 bd 95 3a 22 b7
       -0.100147754 -0.09517239 -0.072790116 -9.669592e-06
0003f0 64 02 75 bd 64 1b bb bc 2c a3 4b 3c da 79 0c 3e
       -0.059816733 -0.02284021 0.01242904 0.13718358

fc1.bias f4 [50]
000000 bb 87 95 ba 58 f7 66 3d 2e a1 62 3b 68 37 50 bd
       -0.0011408249 0.05638823 0.0034580934 -0.05083409
000010 ed fe c3 3d 73 ce ce 3b c4 7c d6 3d 14 20 8f 3c
       0.095701076 0.0063112318 0.10473016 0.01747135
000020 39 9e 10 3d c8 f7 94 3d 8e 1c 3e bd 27 f2 ba 3d
       0.035307143 0.07273823 -0.04641395 0.09128218
000030 87 ac b0 3d 7f 3e bd 3d f7 10 da 3c f2 3d e2 bc
       0.08626657 0.09240436 0.026619418 -0.027617428
000040 af b7 8a 3d 64 12 dc bb e1 4c 55 3c b2 bc 6d 3d
       0.06773316 -0.0067160595 0.013018818 0.058041282
000050 c1 79 e3 3c 7f 91 10 bd 71 79 f2 bc 53 a5 b5 3b
       0.027768018 -0.035295006 -0.029598923 0.00554339
000060 68 bf 6a bc 68 26 e1 bc 50 44 8c 3d 0e b8 80 3d
       -0.014327861 -0.027484134 0.06848967 0.06285106
000070 5c 6e 96 3d a0 72 08 3d e2 ed d5 3d 13 bd 53 3c
       0.07345268 0.03331244 0.10445763 0.012923497
000080 be 61 45 3c 16 6b ae 3c 59 be a8 3c 99 90 8d 3d
       0.012047229 0.021291297 0.020598577 0.069123454
000090 92 a1 f6 3a 0a 5e 9d 3d 24 37 cf bc d5 4c d3 3c
       0.0018816462 0.07683952 -0.025294848 0.025793472
0000a0 6f e0 17 3d 12 0e a8 3d ae 23 9d 3c 8a 48 0f bd
       0.03707927 0.08205809 0.019182052 -0.034981288
0000b0 f2 01 8e 3c ef 85 be 3b d3 69 b2 3c 07 82 24 3d
       0.017334912 0.005814306 0.021778977 0.040163066
0000c0 80 68 6a bc 40 8a c6 3c
       -0.014307141 0.024235845

fc2.weight f4 [10, 50]
000000 0b 44 a7 3e 48 0f 2a be 66 05 a5 3d ce 78 f8 3c
       0.326691 -0.16607392 0.0805767 0.030331042
000010 70 b6 6c be 8a d9 05 be 67 18 80 be 49 8e 61 3e
       -0.2311647 -0.13071266 -0.25018618 0.22026934
000020 e8 df 23 be fc fd a3 3e ea 75 8b 3e 40 c7 43 be
       -0.16003382 0.32029712 0.272384 -0.19118977
000030 0c be 26 be f3 f8 6f be c8 62 95 3e 8d 30 04 be
       -0.16283435 -0.2343481 0.29176927 -0.12909146
000040 e6 57 2c be 55 a0 9e 3e fd 70 9c 3e e2 be 48 be
       -0.16830406 0.309817 0.30554953 -0.19604066
000050 84 3a 5e 3e 36 b4 1f be fb ce 11 3e 8e 7c a0 3e
       0.2170201 -0.15596089 0.14239113 0.31345028
000060 b2 cd f0 bc 17 aa f5 bd 1e 16 97 be ff f4 73 3e
       -0.029394958 -0.11995333 -0.29509062 0.23823927
000070 95 13 82 be cd 23 4e 3d a0 95 48 be ba 11 54 bd
       -0.25405565 0.05032711 -0.19588327 -0.051774718
000080 d8 aa 06 be 58 fb 30 3e fa de d3 bd e7 aa 61 be
       -0.13151109 0.1728338 -0.10345264 -0.2203785
000090 ae 0b aa 3c 5f 12 3d be ba f0 1d be 4f 81 8c be
       0.020757522 -0.1846404 -0.15423861 -0.27442405
0000a0 ee 8b 8e 3e 21 a6 b1 be 3b 5d 81 be 61 9d aa 3d
       0.27841133 -0.3469706 -0.25266442 0.08330799
0000b0 c1 55 bc bd 35 b0 4d be cb 64 95 bd eb d8 37 bd
       -0.09196044 -0.20086749 -0.07294615 -0.044884603
0000c0 1c 29 60 bd 72 d6 0c 3e 38 da 79 be 99 97 e3 bd
       -0.054726705 0.1375368 -0.2439965 -0.11112899
0000d0 ab cb 78 be 18 68 39 bd 84 fa 9d 3e 34 88 5d be
       -0.24296443 -0.045265287 0.3085519 -0.21633989
0000e0 35 c6 a5 3e 34 ff a4 be 95 a3 85 3e 14 52 99 3e
       0.32377782 -0.32225955 0.26101366 0.29945433
0000f0 1e 66 9a bd 05 d0 a4 3e aa 51 92 3e 65 98 8d 3e
       -0.075390086 0.32189956 0.2857793 0.2765533
000100 93 b5 b8 bc 43 3b 82 be d7 46 e7 bd e7 6a 05 be
       -0.022547519 -0.25435838 -0.112928085 -0.13029061
000110 79 b6 90 be c8 d3 b3 3e 9a a6 91 bc 36 35 2b be
       -0.28264216 0.35122514 -0.017779637 -0.16719517
000120 0d f5 ff bd 61 c8 08 be 18 74 88 bd 2e ee f7 bd
       -0.124979116 -0.13357688 -0.06662768 -0.12105976
000130 e3 a8 3c 3e 34 da 8a be 9d 23 57 be a2 e9 85 be
       0.184238 -0.271196 -0.21009679 -0.2615481
000140 b7 62 e7 3e 26 7e ff bd 96 b5 47 be 59 07 81 be
       0.451925 -0.12475233 -0.19502863 -0.25200918
000150 09 c6 a5 3e a2 c0 ef 3d 9d cb 39 be d9 21 4a 3e
       0.3237765 0.11706664 -0.18144079 0.19739474
000160 b0 65 45 be 63 1b 90 3e 0e 78 99 be dd 97 57 be
       -0.19277072 0.28145894 -0.29974407 -0.21054025
000170 dc f1 d6 bd 4c 9c 48 be b3 43 70 be 89 9a 14 3e
       -0.1049535 -0.19590873 -0.23463325 0.14512075
000180 40 c4 e2 bd e2 ee ee 3d 03 00 c1 bd ba f3 5d be
       -0.11072588 0.11666657 -0.0942383 -0.21675006
000190 fb 64 60 3e 06 ec 22 be 2e b3 c3 3d da f4 52 3d
       0.21913521 -0.15910348 0.0955566 0.05150304
0001a0 63 f0 2c be cb 9b 89 3e 1b 11 9b 3d 8b 13 35 3e
       -0.16888575 0.26876673 0.07571622 0.17683236
0001b0 98 4f 26 be 5a e3 26 3d 39 51 dc bd dc 16 08 be
       -0.162413 0.040744163 -0.107576795 -0.1328997
0001c0 da c3 94 3e 02 e9 37 be 39 40 56 3e 7d 68 f8 bd
       0.29055673 -0.17959979 0.20922936 -0.121293046
0001d0 36 61 90 3e ca c8 08 be 9f 95 8b 3e b0 2f 85 be
       0.28199166 -0.13357845 0.2726259 -0.26012945
0001e0 dd 1a af 3d 68 9d 1a be e2 ec 55 3d 8f f7 48 3e
       0.08550046 -0.15099108 0.052227862 0.19625686
0001f0 d0 9d 6e 3b f6 85 8b 3d 24 c7 8a 3e cf 25 06 3e
       0.0036409982 0.068126604 0.27105057 0.1310036
000200 c2 97 58 be 80 ec 66 3d b0 6d fe bc 7f 0c 39 3e
       -0.21151641 0.056377888 -0.031058162 0.18071173
000210 a5 5c 90 bc 7e 93 19 be 7e 6d c1 3e 9c 0b 87 3e
       -0.017622301 -0.1499767 0.37778848 0.26376045
000220 78 f1 78 be c9 7d 71 3e de f7 15 be 02 e4 70 be
       -0.24310863 0.2358314 -0.14645335 -0.23524478
000230 75 fc fe bc 21 92 10 3e 23 b6 19 3e 23 be 22 be
       -0.03112624 0.14118244 0.15010886 -0.15892844
000240 8f 5b 5c be 42 f7 c2 3b ad 10 1d 3e 17 13 4a 3e
       -0.21519302 0.0059498856 0.15338393 0.19733845
000250 db a3 04 3c 86 f3 38 be 89 bc 8b bd 97 41 dd bd
       0.008095707 -0.18061647 -0.068230696 -0.10803526
000260 26 98 6b 3e 02 86 32 be 09 8c bc 3e 92 52 3c 3b
       0.23007259 -0.17433932 0.36825588 0.002873574
000270 34 a0 ee bd 49 a2 3d 3e 64 9a 74 be f5 61 26 be
       -0.1165165 0.18518938 -0.2388702 -0.16248305
000280 7f 5e 1d 3c a2 79 ac bd 5b 35 9a 3d 82 b9 74 3e
       0.009605049 -0.08421637 0.07529708 0.2389889
000290 99 2f 07 be 6b 46 6d be ed d6 2a 3e 4a 22 0d be
       -0.13201751 -0.23171394 0.1668355 -0.13782611
0002a0 b6 d8 40 3c 83 ff b7 3c ff 9f d1 bd 2d 19 70 be
       0.011770418 0.022460705 -0.10235595 -0.23447104
0002b0 b2 a3 0d 3d d6 fe 42 be 5f 95 b7 3e 7a e5 a4 3e
       0.03457994 -0.19042525 0.3585615 0.32206327
0002c0 99 d3 4e 3e 9d 0a 73 be 2f 26 3e 3e cf b9 7b 3e
       0.20197906 -0.23734517 0.18569253 0.24582599
0002d0 11 12 bd bd aa 6c 1b 3e 77 0d a6 3e af 18 99 be
       -0.092319615 0.15178171 0.32432148 -0.29901645
0002e0 09 b9 fa bd 63 ac ac bd 4d 96 96 3e 8f 33 e6 3d
       -0.12242324 -0.08431318 0.29411545 0.11240303
0002f0 db 40 e6 bd 27 dd 93 be 1e 69 22 be 32 9c f7 bd
       -0.11242839 -0.28879663 -0.15860412 -0.12090339
000300 7c f7 78 bc d5 5f 8d be db a7 3c be 9d 39 b7 3d
       -0.015195724 -0.27612177 -0.18423407 0.08946536
000310 9e 72 92 bd 1a 33 4c 3e d9 1f 45 3d da c1 25 be
       -0.07150768 0.19941369 0.048126075 -0.1618723
000320 db 96 93 bc 10 24 a5 3e 0d 03 b7 be 8f ee 9e 3e
       -0.01801627 0.32254076 -0.35744515 0.3104138
000330 07 78 a4 bd 4b c5 46 be a0 9e 2e bd e1 4f c0 be
       -0.08030706 -0.19411199 -0.042631745 -0.37560943
000340 28 a7 c8 3b 20 d8 5a be df d0 13 be 26 2a 9d 3e
       0.006123442 -0.21371508 -0.14435147 0.3069622
000350 5b 95 d0 bd b1 4f 4e 3b 88 b8 ce bd cb c0 a1 3e
       -0.10184737 0.0031480605 -0.1009379 0.31592402
000360 d2 07 a7 3e c1 51 9f bd f8 6c 5c be db d5 b8 3e
       0.32623154 -0.07779265 -0.21525943 0.3610066
000370 7f 11 8d bd 0b a9 b2 3e d8 27 4a be d5 08 8c bd
       -0.06888103 0.34894595 -0.19741762 -0.06837622
000380 f5 9d 2e bd ed e4 22 be 04 48 80 be 18 11 44 bd
       -0.04263111 -0.15907641 -0.25054944 -0.047867864
000390 d4 07 e1 3d 7f 79 e2 be cc 4d 6a bd 60 ad 36 3e
       0.10987821 -0.4423332 -0.0572031 0.17839575
0003a0 30 c5 8e 3e 74 c4 38 3e e6 73 85 bd f4 a6 a8 be
       0.27884817 0.18043691 -0.065162465 -0.32939875
0003b0 1c a4 0f be 79 e2 4c be f7 0c ea bd 1d 94 8b 3e
       -0.14027447 -0.20008267 -0.11428254 0.2726144
0003c0 16 ad 29 be 07 77 2a 3e 05 48 aa 3e 28 63 58 bd
       -0.16569933 0.16646968 0.33258072 -0.052828938
0003d0 26 b4 4e bd f0 2b 0b 3d f0 4f c1 3e 25 5c 83 be
       -0.05046477 0.03397745 0.377563 -0.25656238
0003e0 81 d8 de bd 1e f3 6f be 2f c2 0f be bc e9 34 be
       -0.108811386 -0.23432586 -0.14038919 -0.17667288
0003f0 5a 9e 22 3e 9e 55 4e be e3 f8 97 3e b6 e5 30 be
       0.15880719 -0.20149848 0.29682073 -0.17275128

fc2.bias f4 [10]
000000 44 da 9b bd 0e f5 9c 3e 14 f3 67 be 44 34 4a 3e
       -0.0760999 0.30655712 -0.2265132 0.197465
000010 b0 66 62 be b3 3f 05 be ea e5 16 be 13 eb 76 3d
       -0.22109485 -0.1301258 -0.14736143 0.060282778
000020 03 14 5c 3e 6e 76 ea 3c
       0.21492009 0.028620925
